…
        "### pre_train_model.load_weights('/content/gdrive/My Drive/cats_and_dogs_filtered/inception_v3_weights_tf_dim_ordering_tf_kernels_notop.h5')\n",
        "pre_train_model.summary()"
      ],
      "execution_count": 205,
      "outputs": [
        {
          "output_type": "stream",
          "text": [
            "Model: \"inception_v3\"\n",
            "__________________________________________________________________________________________________\n",
            "Layer (type)                    Output Shape         Param #     Connected to                     \n",
            "==================================================================================================\n",
            "input_11 (InputLayer)           [(None, 200, 200, 3) 0                                            \n",
            "__________________________________________________________________________________________________\n",
            "conv2d_940 (Conv2D)             (None, 99, 99, 32)   864         input_11[0][0]                   \n",
            "__________________________________________________________________________________________________\n",
            "batch_normalization_940 (BatchN (None, 99, 99, 32)   96          conv2d_940[0][0]                 \n",
            "__________________________________________________________________________________________________\n",
            "activation_940 (Activation)     (None, 99, 99, 32)   0           batch_normalization_940[0][0]    \n",
            "__________________________________________________________________________________________________\n",
            "conv2d_941 (Conv2D)             (None, 97, 97, 32)   9216        activation_940[0][0]             \n",
            "__________________________________________________________________________________________________\n",
            "batch_normalization_941 (BatchN (None, 97, 97, 32)   96          conv2d_941[0][0]                 \n",
            "__________________________________________________________________________________________________\n",
            "activation_941 (Activation)     (None, 97, 97, 32)   0           batch_normalization_941[0][0]    \n",
            "__________________________________________________________________________________________________\n",
            "conv2d_942 (Conv2D)             (None, 97, 97, 64)   18432       activation_941[0][0]             \n",
            "__________________________________________________________________________________________________\n",
            "batch_normalization_942 (BatchN (None, 97, 97, 64)   192         conv2d_942[0][0]                 \n",
            "__________________________________________________________________________________________________\n",
            "activation_942 (Activation)     (None, 97, 97, 64)   0           batch_normalization_942[0][0]    \n",
            "__________________________________________________________________________________________________\n",
            "max_pooling2d_40 (MaxPooling2D) (None, 48, 48, 64)   0           activation_942[0][0]             \n",
            "__________________________________________________________________________________________________\n",
            "conv2d_943 (Conv2D)             (None, 48, 48, 80)   5120        max_pooling2d_40[0][0]           \n",
            "__________________________________________________________________________________________________\n",
            "batch_normalization_943 (BatchN (None, 48, 48, 80)   240         conv2d_943[0][0]                 \n",
            "__________________________________________________________________________________________________\n",
            "activation_943 (Activation)     (None, 48, 48, 80)   0           batch_normalization_943[0][0]    \n",
            "__________________________________________________________________________________________________\n",
            "conv2d_944 (Conv2D)             (None, 46, 46, 192)  138240      activation_943[0][0]             \n",
            "__________________________________________________________________________________________________\n",
            "batch_normalization_944 (BatchN (None, 46, 46, 192)  576         conv2d_944[0][0]                 \n",
            "__________________________________________________________________________________________________\n",
            "activation_944 (Activation)     (None, 46, 46, 192)  0           batch_normalization_944[0][0]    \n",
            "__________________________________________________________________________________________________\n",
            "max_pooling2d_41 (MaxPooling2D) (None, 22, 22, 192)  0           activation_944[0][0]             \n",
            "__________________________________________________________________________________________________\n",
            "conv2d_948 (Conv2D)             (None, 22, 22, 64)   12288       max_pooling2d_41[0][0]           \n",
            "__________________________________________________________________________________________________\n",
            "batch_normalization_948 (BatchN (None, 22, 22, 64)   192         conv2d_948[0][0]                 \n",
            "__________________________________________________________________________________________________\n",
            "activation_948 (Activation)     (None, 22, 22, 64)   0           batch_normalization_948[0][0]    \n",
            "__________________________________________________________________________________________________\n",
            "conv2d_946 (Conv2D)             (None, 22, 22, 48)   9216        max_pooling2d_41[0][0]           \n",
            "__________________________________________________________________________________________________\n",
            "conv2d_949 (Conv2D)             (None, 22, 22, 96)   55296       activation_948[0][0]             \n",
            "__________________________________________________________________________________________________\n",
            "batch_normalization_946 (BatchN (None, 22, 22, 48)   144         conv2d_946[0][0]                 \n",
            "__________________________________________________________________________________________________\n",
            "batch_normalization_949 (BatchN (None, 22, 22, 96)   288         conv2d_949[0][0]                 \n",
            "__________________________________________________________________________________________________\n",
            "activation_946 (Activation)     (None, 22, 22, 48)   0           batch_normalization_946[0][0]    \n",
            "__________________________________________________________________________________________________\n",
            "activation_949 (Activation)     (None, 22, 22, 96)   0           batch_normalization_949[0][0]    \n",
            "__________________________________________________________________________________________________\n",
            "average_pooling2d_90 (AveragePo (None, 22, 22, 192)  0           max_pooling2d_41[0][0]           \n",
            "__________________________________________________________________________________________________\n",
            "conv2d_945 (Conv2D)             (None, 22, 22, 64)   12288       max_pooling2d_41[0][0]           \n",
            "__________________________________________________________________________________________________\n",
            "conv2d_947 (Conv2D)             (None, 22, 22, 64)   76800       activation_946[0][0]             \n",
            "__________________________________________________________________________________________________\n",
            "conv2d_950 (Conv2D)             (None, 22, 22, 96)   82944       activation_949[0][0]             \n",
            "__________________________________________________________________________________________________\n",
            "conv2d_951 (Conv2D)             (None, 22, 22, 32)   6144        average_pooling2d_90[0][0]       \n",
            "__________________________________________________________________________________________________\n",
            "batch_normalization_945 (BatchN (None, 22, 22, 64)   192         conv2d_945[0][0]                 \n",
            "__________________________________________________________________________________________________\n",
            "batch_normalization_947 (BatchN (None, 22, 22, 64)   192         conv2d_947[0][0]                 \n",
            "__________________________________________________________________________________________________\n",
            "batch_normalization_950 (BatchN (None, 22, 22, 96)   288         conv2d_950[0][0]                 \n",
            "__________________________________________________________________________________________________\n",
            "batch_normalization_951 (BatchN (None, 22, 22, 32)   96          conv2d_951[0][0]                 \n",
            "__________________________________________________________________________________________________\n",
            "activation_945 (Activation)     (None, 22, 22, 64)   0           batch_normalization_945[0][0]    \n",
            "__________________________________________________________________________________________________\n",
            "activation_947 (Activation)     (None, 22, 22, 64)   0           batch_normalization_947[0][0]    \n",
            "__________________________________________________________________________________________________\n",
            "activation_950 (Activation)     (None, 22, 22, 96)   0           batch_normalization_950[0][0]    \n",
            "__________________________________________________________________________________________________\n",
            "activation_951 (Activation)     (None, 22, 22, 32)   0           batch_normalization_951[0][0]    \n",
            "__________________________________________________________________________________________________\n",
            "mixed0 (Concatenate)            (None, 22, 22, 256)  0           activation_945[0][0]             \n",
            "                                                                 activation_947[0][0]             \n",
            "                                                                 activation_950[0][0]             \n",
            "                                                                 activation_951[0][0]             \n",
            "__________________________________________________________________________________________________\n",
            "conv2d_955 (Conv2D)             (None, 22, 22, 64)   16384       mixed0[0][0]                     \n",
            "__________________________________________________________________________________________________\n",
            "batch_normalization_955 (BatchN (None, 22, 22, 64)   192         conv2d_955[0][0]                 \n",
            "__________________________________________________________________________________________________\n",
            "activation_955 (Activation)     (None, 22, 22, 64)   0           batch_normalization_955[0][0]    \n",
            "__________________________________________________________________________________________________\n",
            "conv2d_953 (Conv2D)             (None, 22, 22, 48)   12288       mixed0[0][0]                     \n",
            "__________________________________________________________________________________________________\n",
            "conv2d_956 (Conv2D)             (None, 22, 22, 96)   55296       activation_955[0][0]             \n",
            "__________________________________________________________________________________________________\n",
            "batch_normalization_953 (BatchN (None, 22, 22, 48)   144         conv2d_953[0][0]                 \n",
            "__________________________________________________________________________________________________\n",
            "batch_normalization_956 (BatchN (None, 22, 22, 96)   288         conv2d_956[0][0]                 \n",
            "__________________________________________________________________________________________________\n",
            "activation_953 (Activation)     (None, 22, 22, 48)   0           batch_normalization_953[0][0]    \n",
            "__________________________________________________________________________________________________\n",
            "activation_956 (Activation)     (None, 22, 22, 96)   0           batch_normalization_956[0][0]    \n",
            "__________________________________________________________________________________________________\n",
            "average_pooling2d_91 (AveragePo (None, 22, 22, 256)  0           mixed0[0][0]                     \n",
            "__________________________________________________________________________________________________\n",
            "conv2d_952 (Conv2D)             (None, 22, 22, 64)   16384       mixed0[0][0]                     \n",
            "__________________________________________________________________________________________________\n",
            "conv2d_954 (Conv2D)             (None, 22, 22, 64)   76800       activation_953[0][0]             \n",
            "__________________________________________________________________________________________________\n",
            "conv2d_957 (Conv2D)             (None, 22, 22, 96)   82944       activation_956[0][0]             \n",
            "__________________________________________________________________________________________________\n",
            "conv2d_958 (Conv2D)             (None, 22, 22, 64)   16384       average_pooling2d_91[0][0]       \n",
            "__________________________________________________________________________________________________\n",
            "batch_normalization_952 (BatchN (None, 22, 22, 64)   192         conv2d_952[0][0]                 \n",
            "__________________________________________________________________________________________________\n",
            "batch_normalization_954 (BatchN (None, 22, 22, 64)   192         conv2d_954[0][0]                 \n",
            "__________________________________________________________________________________________________\n",
            "batch_normalization_957 (BatchN (None, 22, 22, 96)   288         conv2d_957[0][0]                 \n",
            "__________________________________________________________________________________________________\n",
            "batch_normalization_958 (BatchN (None, 22, 22, 64)   192         conv2d_958[0][0]                 \n",
            "__________________________________________________________________________________________________\n",
            "activation_952 (Activation)     (None, 22, 22, 64)   0           batch_normalization_952[0][0]    \n",
            "__________________________________________________________________________________________________\n",
            "activation_954 (Activation)     (None, 22, 22, 64)   0           batch_normalization_954[0][0]    \n",
            "__________________________________________________________________________________________________\n",
            "activation_957 (Activation)     (None, 22, 22, 96)   0           batch_normalization_957[0][0]    \n",
            "__________________________________________________________________________________________________\n",
            "activation_958 (Activation)     (None, 22, 22, 64)   0           batch_normalization_958[0][0]    \n",
            "__________________________________________________________________________________________________\n",
            "mixed1 (Concatenate)            (None, 22, 22, 288)  0           activation_952[0][0]             \n",
            "                                                                 activation_954[0][0]             \n",
            "                                                                 activation_957[0][0]             \n",
            "                                                                 activation_958[0][0]             \n",
            "__________________________________________________________________________________________________\n",
            "conv2d_962 (Conv2D)             (None, 22, 22, 64)   18432       mixed1[0][0]                     \n",
            "__________________________________________________________________________________________________\n",
            "batch_normalization_962 (BatchN (None, 22, 22, 64)   192         conv2d_962[0][0]                 \n",
            "__________________________________________________________________________________________________\n",
            "activation_962 (Activation)     (None, 22, 22, 64)   0           batch_normalization_962[0][0]    \n",
            "__________________________________________________________________________________________________\n",
            "conv2d_960 (Conv2D)             (None, 22, 22, 48)   13824       mixed1[0][0]                     \n",
            "__________________________________________________________________________________________________\n",
            "conv2d_963 (Conv2D)             (None, 22, 22, 96)   55296       activation_962[0][0]             \n",
            "__________________________________________________________________________________________________\n",
            "batch_normalization_960 (BatchN (None, 22, 22, 48)   144         conv2d_960[0][0]                 \n",
            "__________________________________________________________________________________________________\n",
            "batch_normalization_963 (BatchN (None, 22, 22, 96)   288         conv2d_963[0][0]                 \n",
            "__________________________________________________________________________________________________\n",
            "activation_960 (Activation)     (None, 22, 22, 48)   0           batch_normalization_960[0][0]    \n",
            "__________________________________________________________________________________________________\n",
            "activation_963 (Activation)     (None, 22, 22, 96)   0           batch_normalization_963[0][0]    \n",
            "__________________________________________________________________________________________________\n",
            "average_pooling2d_92 (AveragePo (None, 22, 22, 288)  0           mixed1[0][0]                     \n",
            "__________________________________________________________________________________________________\n",
            "conv2d_959 (Conv2D)             (None, 22, 22, 64)   18432       mixed1[0][0]                     \n",
            "__________________________________________________________________________________________________\n",
            "conv2d_961 (Conv2D)             (None, 22, 22, 64)   76800       activation_960[0][0]             \n",
            "__________________________________________________________________________________________________\n",
            "conv2d_964 (Conv2D)             (None, 22, 22, 96)   82944       activation_963[0][0]             \n",
            "__________________________________________________________________________________________________\n",
            "conv2d_965 (Conv2D)             (None, 22, 22, 64)   18432       average_pooling2d_92[0][0]       \n",
            "__________________________________________________________________________________________________\n",
            "batch_normalization_959 (BatchN (None, 22, 22, 64)   192         conv2d_959[0][0]                 \n",
            "__________________________________________________________________________________________________\n",
            "batch_normalization_961 (BatchN (None, 22, 22, 64)   192         conv2d_961[0][0]                 \n",
            "__________________________________________________________________________________________________\n",
            "batch_normalization_964 (BatchN (None, 22, 22, 96)   288         conv2d_964[0][0]                 \n",
            "__________________________________________________________________________________________________\n",
            "batch_normalization_965 (BatchN (None, 22, 22, 64)   192         conv2d_965[0][0]                 \n",
            "__________________________________________________________________________________________________\n",
            "activation_959 (Activation)     (None, 22, 22, 64)   0           batch_normalization_959[0][0]    \n",
            "__________________________________________________________________________________________________\n",
            "activation_961 (Activation)     (None, 22, 22, 64)   0           batch_normalization_961[0][0]    \n",
            "__________________________________________________________________________________________________\n",
            "activation_964 (Activation)     (None, 22, 22, 96)   0           batch_normalization_964[0][0]    \n",
            "__________________________________________________________________________________________________\n",
            "activation_965 (Activation)     (None, 22, 22, 64)   0           batch_normalization_965[0][0]    \n",
            "__________________________________________________________________________________________________\n",
            "mixed2 (Concatenate)            (None, 22, 22, 288)  0           activation_959[0][0]             \n",
            "                                                                 activation_961[0][0]             \n",
            "                                                                 activation_964[0][0]             \n",
            "                                                                 activation_965[0][0]             \n",
            "__________________________________________________________________________________________________\n",
            "conv2d_967 (Conv2D)             (None, 22, 22, 64)   18432       mixed2[0][0]                     \n",
            "__________________________________________________________________________________________________\n",
            "batch_normalization_967 (BatchN (None, 22, 22, 64)   192         conv2d_967[0][0]                 \n",
            "__________________________________________________________________________________________________\n",
            "activation_967 (Activation)     (None, 22, 22, 64)   0           batch_normalization_967[0][0]    \n",
            "__________________________________________________________________________________________________\n",
            "conv2d_968 (Conv2D)             (None, 22, 22, 96)   55296       activation_967[0][0]             \n",
            "__________________________________________________________________________________________________\n",
            "batch_normalization_968 (BatchN (None, 22, 22, 96)   288         conv2d_968[0][0]                 \n",
            "__________________________________________________________________________________________________\n",
            "activation_968 (Activation)     (None, 22, 22, 96)   0           batch_normalization_968[0][0]    \n",
            "__________________________________________________________________________________________________\n",
            "conv2d_966 (Conv2D)             (None, 10, 10, 384)  995328      mixed2[0][0]                     \n",
            "__________________________________________________________________________________________________\n",
            "conv2d_969 (Conv2D)             (None, 10, 10, 96)   82944       activation_968[0][0]             \n",
            "__________________________________________________________________________________________________\n",
            "batch_normalization_966 (BatchN (None, 10, 10, 384)  1152        conv2d_966[0][0]                 \n",
            "__________________________________________________________________________________________________\n",
            "batch_normalization_969 (BatchN (None, 10, 10, 96)   288         conv2d_969[0][0]                 \n",
            "__________________________________________________________________________________________________\n",
            "activation_966 (Activation)     (None, 10, 10, 384)  0           batch_normalization_966[0][0]    \n",
            "__________________________________________________________________________________________________\n",
            "activation_969 (Activation)     (None, 10, 10, 96)   0           batch_normalization_969[0][0]    \n",
            "__________________________________________________________________________________________________\n",
            "max_pooling2d_42 (MaxPooling2D) (None, 10, 10, 288)  0           mixed2[0][0]                     \n",
            "__________________________________________________________________________________________________\n",
            "mixed3 (Concatenate)            (None, 10, 10, 768)  0           activation_966[0][0]             \n",
            "                                                                 activation_969[0][0]             \n",
            "                                                                 max_pooling2d_42[0][0]           \n",
            "__________________________________________________________________________________________________\n",
            "conv2d_974 (Conv2D)             (None, 10, 10, 128)  98304       mixed3[0][0]                     \n",
            "__________________________________________________________________________________________________\n",
            "batch_normalization_974 (BatchN (None, 10, 10, 128)  384         conv2d_974[0][0]                 \n",
            "__________________________________________________________________________________________________\n",
            "activation_974 (Activation)     (None, 10, 10, 128)  0           batch_normalization_974[0][0]    \n",
            "__________________________________________________________________________________________________\n",
            "conv2d_975 (Conv2D)             (None, 10, 10, 128)  114688      activation_974[0][0]             \n",
            "__________________________________________________________________________________________________\n",
            "batch_normalization_975 (BatchN (None, 10, 10, 128)  384         conv2d_975[0][0]                 \n",
            "__________________________________________________________________________________________________\n",
            "activation_975 (Activation)     (None, 10, 10, 128)  0           batch_normalization_975[0][0]    \n",
            "__________________________________________________________________________________________________\n",
            "conv2d_971 (Conv2D)             (None, 10, 10, 128)  98304       mixed3[0][0]                     \n",
            "__________________________________________________________________________________________________\n",
            "conv2d_976 (Conv2D)             (None, 10, 10, 128)  114688      activation_975[0][0]             \n",
            "__________________________________________________________________________________________________\n",
            "batch_normalization_971 (BatchN (None, 10, 10, 128)  384         conv2d_971[0][0]                 \n",
            "__________________________________________________________________________________________________\n",
            "batch_normalization_976 (BatchN (None, 10, 10, 128)  384         conv2d_976[0][0]                 \n",
            "__________________________________________________________________________________________________\n",
            "activation_971 (Activation)     (None, 10, 10, 128)  0           batch_normalization_971[0][0]    \n",
            "__________________________________________________________________________________________________\n",
            "activation_976 (Activation)     (None, 10, 10, 128)  0           batch_normalization_976[0][0]    \n",
            "__________________________________________________________________________________________________\n",
            "conv2d_972 (Conv2D)             (None, 10, 10, 128)  114688      activation_971[0][0]             \n",
            "__________________________________________________________________________________________________\n",
            "conv2d_977 (Conv2D)             (None, 10, 10, 128)  114688      activation_976[0][0]             \n",
            "__________________________________________________________________________________________________\n",
            "batch_normalization_972 (BatchN (None, 10, 10, 128)  384         conv2d_972[0][0]                 \n",
            "__________________________________________________________________________________________________\n",
            "batch_normalization_977 (BatchN (None, 10, 10, 128)  384         conv2d_977[0][0]                 \n",
            "__________________________________________________________________________________________________\n",
            "activation_972 (Activation)     (None, 10, 10, 128)  0           batch_normalization_972[0][0]    \n",
            "__________________________________________________________________________________________________\n",
            "activation_977 (Activation)     (None, 10, 10, 128)  0           batch_normalization_977[0][0]    \n",
            "__________________________________________________________________________________________________\n",
            "average_pooling2d_93 (AveragePo (None, 10, 10, 768)  0           mixed3[0][0]                     \n",
            "__________________________________________________________________________________________________\n",
            "conv2d_970 (Conv2D)             (None, 10, 10, 192)  147456      mixed3[0][0]                     \n",
            "__________________________________________________________________________________________________\n",
            "conv2d_973 (Conv2D)             (None, 10, 10, 192)  172032      activation_972[0][0]             \n",
            "__________________________________________________________________________________________________\n",
            "conv2d_978 (Conv2D)             (None, 10, 10, 192)  172032      activation_977[0][0]             \n",
            "__________________________________________________________________________________________________\n",
            "conv2d_979 (Conv2D)             (None, 10, 10, 192)  147456      average_pooling2d_93[0][0]       \n",
            "__________________________________________________________________________________________________\n",
            "batch_normalization_970 (BatchN (None, 10, 10, 192)  576         conv2d_970[0][0]                 \n",
            "__________________________________________________________________________________________________\n",
            "batch_normalization_973 (BatchN (None, 10, 10, 192)  576         conv2d_973[0][0]                 \n",
            "__________________________________________________________________________________________________\n",
            "batch_normalization_978 (BatchN (None, 10, 10, 192)  576         conv2d_978[0][0]                 \n",
            "__________________________________________________________________________________________________\n",
            "batch_normalization_979 (BatchN (None, 10, 10, 192)  576         conv2d_979[0][0]                 \n",
            "__________________________________________________________________________________________________\n",
            "activation_970 (Activation)     (None, 10, 10, 192)  0           batch_normalization_970[0][0]    \n",
            "__________________________________________________________________________________________________\n",
            "activation_973 (Activation)     (None, 10, 10, 192)  0           batch_normalization_973[0][0]    \n",
            "__________________________________________________________________________________________________\n",
            "activation_978 (Activation)     (None, 10, 10, 192)  0           batch_normalization_978[0][0]    \n",
            "__________________________________________________________________________________________________\n",
            "activation_979 (Activation)     (None, 10, 10, 192)  0           batch_normalization_979[0][0]    \n",
            "__________________________________________________________________________________________________\n",
            "mixed4 (Concatenate)            (None, 10, 10, 768)  0           activation_970[0][0]             \n",
            "                                                                 activation_973[0][0]             \n",
            "                                                                 activation_978[0][0]             \n",
            "                                                                 activation_979[0][0]             \n",
            "__________________________________________________________________________________________________\n",
            "conv2d_984 (Conv2D)             (None, 10, 10, 160)  122880      mixed4[0][0]                     \n",
            "__________________________________________________________________________________________________\n",
            "batch_normalization_984 (BatchN (None, 10, 10, 160)  480         conv2d_984[0][0]                 \n",
            "__________________________________________________________________________________________________\n",
            "activation_984 (Activation)     (None, 10, 10, 160)  0           batch_normalization_984[0][0]    \n",
            "__________________________________________________________________________________________________\n",
            "conv2d_985 (Conv2D)             (None, 10, 10, 160)  179200      activation_984[0][0]             \n",
            "__________________________________________________________________________________________________\n",
            "batch_normalization_985 (BatchN (None, 10, 10, 160)  480         conv2d_985[0][0]                 \n",
            "__________________________________________________________________________________________________\n",
            "activation_985 (Activation)     (None, 10, 10, 160)  0           batch_normalization_985[0][0]    \n",
            "__________________________________________________________________________________________________\n",
            "conv2d_981 (Conv2D)             (None, 10, 10, 160)  122880      mixed4[0][0]                     \n",
            "__________________________________________________________________________________________________\n",
            "conv2d_986 (Conv2D)             (None, 10, 10, 160)  179200      activation_985[0][0]             \n",
            "__________________________________________________________________________________________________\n",
            "batch_normalization_981 (BatchN (None, 10, 10, 160)  480         conv2d_981[0][0]                 \n",
            "__________________________________________________________________________________________________\n",
            "batch_normalization_986 (BatchN (None, 10, 10, 160)  480         conv2d_986[0][0]                 \n",
            "__________________________________________________________________________________________________\n",
            "activation_981 (Activation)     (None, 10, 10, 160)  0           batch_normalization_981[0][0]    \n",
            "__________________________________________________________________________________________________\n",
            "activation_986 (Activation)     (None, 10, 10, 160)  0           batch_normalization_986[0][0]    \n",
            "__________________________________________________________________________________________________\n",
            "conv2d_982 (Conv2D)             (None, 10, 10, 160)  179200      activation_981[0][0]             \n",
            "__________________________________________________________________________________________________\n",
            "conv2d_987 (Conv2D)             (None, 10, 10, 160)  179200      activation_986[0][0]             \n",
            "__________________________________________________________________________________________________\n",
            "batch_normalization_982 (BatchN (None, 10, 10, 160)  480         conv2d_982[0][0]                 \n",
            "__________________________________________________________________________________________________\n",
            "batch_normalization_987 (BatchN (None, 10, 10, 160)  480         conv2d_987[0][0]                 \n",
            "__________________________________________________________________________________________________\n",
            "activation_982 (Activation)     (None, 10, 10, 160)  0           batch_normalization_982[0][0]    \n",
            "__________________________________________________________________________________________________\n",
            "activation_987 (Activation)     (None, 10, 10, 160)  0           batch_normalization_987[0][0]    \n",
            "__________________________________________________________________________________________________\n",
            "average_pooling2d_94 (AveragePo (None, 10, 10, 768)  0           mixed4[0][0]                     \n",
            "__________________________________________________________________________________________________\n",
            "conv2d_980 (Conv2D)             (None, 10, 10, 192)  147456      mixed4[0][0]                     \n",
            "__________________________________________________________________________________________________\n",
            "conv2d_983 (Conv2D)             (None, 10, 10, 192)  215040      activation_982[0][0]             \n",
            "__________________________________________________________________________________________________\n",
            "conv2d_988 (Conv2D)             (None, 10, 10, 192)  215040      activation_987[0][0]             \n",
            "__________________________________________________________________________________________________\n",
            "conv2d_989 (Conv2D)             (None, 10, 10, 192)  147456      average_pooling2d_94[0][0]       \n",
            "__________________________________________________________________________________________________\n",
            "batch_normalization_980 (BatchN (None, 10, 10, 192)  576         conv2d_980[0][0]                 \n",
            "__________________________________________________________________________________________________\n",
            "batch_normalization_983 (BatchN (None, 10, 10, 192)  576         conv2d_983[0][0]                 \n",
            "__________________________________________________________________________________________________\n",
            "batch_normalization_988 (BatchN (None, 10, 10, 192)  576         conv2d_988[0][0]                 \n",
            "__________________________________________________________________________________________________\n",
            "batch_normalization_989 (BatchN (None, 10, 10, 192)  576         conv2d_989[0][0]                 \n",
            "__________________________________________________________________________________________________\n",
            "activation_980 (Activation)     (None, 10, 10, 192)  0           batch_normalization_980[0][0]    \n",
            "__________________________________________________________________________________________________\n",
            "activation_983 (Activation)     (None, 10, 10, 192)  0           batch_normalization_983[0][0]    \n",
            "__________________________________________________________________________________________________\n",
            "activation_988 (Activation)     (None, 10, 10, 192)  0           batch_normalization_988[0][0]    \n",
            "__________________________________________________________________________________________________\n",
            "activation_989 (Activation)     (None, 10, 10, 192)  0           batch_normalization_989[0][0]    \n",
            "__________________________________________________________________________________________________\n",
            "mixed5 (Concatenate)            (None, 10, 10, 768)  0           activation_980[0][0]             \n",
            "                                                                 activation_983[0][0]             \n",
            "                                                                 activation_988[0][0]             \n",
            "                                                                 activation_989[0][0]             \n",
            "__________________________________________________________________________________________________\n",
            "conv2d_994 (Conv2D)             (None, 10, 10, 160)  122880      mixed5[0][0]                     \n",
            "__________________________________________________________________________________________________\n",
            "batch_normalization_994 (BatchN (None, 10, 10, 160)  480         conv2d_994[0][0]                 \n",
            "__________________________________________________________________________________________________\n",
            "activation_994 (Activation)     (None, 10, 10, 160)  0           batch_normalization_994[0][0]    \n",
            "__________________________________________________________________________________________________\n",
            "conv2d_995 (Conv2D)             (None, 10, 10, 160)  179200      activation_994[0][0]             \n",
            "__________________________________________________________________________________________________\n",
            "batch_normalization_995 (BatchN (None, 10, 10, 160)  480         conv2d_995[0][0]                 \n",
            "__________________________________________________________________________________________________\n",
            "activation_995 (Activation)     (None, 10, 10, 160)  0           batch_normalization_995[0][0]    \n",
            "__________________________________________________________________________________________________\n",
            "conv2d_991 (Conv2D)             (None, 10, 10, 160)  122880      mixed5[0][0]                     \n",
            "__________________________________________________________________________________________________\n",
            "conv2d_996 (Conv2D)             (None, 10, 10, 160)  179200      activation_995[0][0]             \n",
            "__________________________________________________________________________________________________\n",
            "batch_normalization_991 (BatchN (None, 10, 10, 160)  480         conv2d_991[0][0]                 \n",
            "__________________________________________________________________________________________________\n",
            "batch_normalization_996 (BatchN (None, 10, 10, 160)  480         conv2d_996[0][0]                 \n",
            "__________________________________________________________________________________________________\n",
            "activation_991 (Activation)     (None, 10, 10, 160)  0           batch_normalization_991[0][0]    \n",
            "__________________________________________________________________________________________________\n",
            "activation_996 (Activation)     (None, 10, 10, 160)  0           batch_normalization_996[0][0]    \n",
            "__________________________________________________________________________________________________\n",
            "conv2d_992 (Conv2D)             (None, 10, 10, 160)  179200      activation_991[0][0]             \n",
            "__________________________________________________________________________________________________\n",
            "conv2d_997 (Conv2D)             (None, 10, 10, 160)  179200      activation_996[0][0]             \n",
            "__________________________________________________________________________________________________\n",
            "batch_normalization_992 (BatchN (None, 10, 10, 160)  480         conv2d_992[0][0]                 \n",
            "__________________________________________________________________________________________________\n",
            "batch_normalization_997 (BatchN (None, 10, 10, 160)  480         conv2d_997[0][0]                 \n",
            "__________________________________________________________________________________________________\n",
            "activation_992 (Activation)     (None, 10, 10, 160)  0           batch_normalization_992[0][0]    \n",
            "__________________________________________________________________________________________________\n",
            "activation_997 (Activation)     (None, 10, 10, 160)  0           batch_normalization_997[0][0]    \n",
            "__________________________________________________________________________________________________\n",
            "average_pooling2d_95 (AveragePo (None, 10, 10, 768)  0           mixed5[0][0]                     \n",
            "__________________________________________________________________________________________________\n",
            "conv2d_990 (Conv2D)             (None, 10, 10, 192)  147456      mixed5[0][0]                     \n",
            "__________________________________________________________________________________________________\n",
            "conv2d_993 (Conv2D)             (None, 10, 10, 192)  215040      activation_992[0][0]             \n",
            "__________________________________________________________________________________________________\n",
            "conv2d_998 (Conv2D)             (None, 10, 10, 192)  215040      activation_997[0][0]             \n",
            "__________________________________________________________________________________________________\n",
            "conv2d_999 (Conv2D)             (None, 10, 10, 192)  147456      average_pooling2d_95[0][0]       \n",
            "__________________________________________________________________________________________________\n",
            "batch_normalization_990 (BatchN (None, 10, 10, 192)  576         conv2d_990[0][0]                 \n",
            "__________________________________________________________________________________________________\n",
            "batch_normalization_993 (BatchN (None, 10, 10, 192)  576         conv2d_993[0][0]                 \n",
            "__________________________________________________________________________________________________\n",
            "batch_normalization_998 (BatchN (None, 10, 10, 192)  576         conv2d_998[0][0]                 \n",
            "__________________________________________________________________________________________________\n",
            "batch_normalization_999 (BatchN (None, 10, 10, 192)  576         conv2d_999[0][0]                 \n",
            "__________________________________________________________________________________________________\n",
            "activation_990 (Activation)     (None, 10, 10, 192)  0           batch_normalization_990[0][0]    \n",
            "__________________________________________________________________________________________________\n",
            "activation_993 (Activation)     (None, 10, 10, 192)  0           batch_normalization_993[0][0]    \n",
            "__________________________________________________________________________________________________\n",
            "activation_998 (Activation)     (None, 10, 10, 192)  0           batch_normalization_998[0][0]    \n",
            "__________________________________________________________________________________________________\n",
            "activation_999 (Activation)     (None, 10, 10, 192)  0           batch_normalization_999[0][0]    \n",
            "__________________________________________________________________________________________________\n",
            "mixed6 (Concatenate)            (None, 10, 10, 768)  0           activation_990[0][0]             \n",
            "                                                                 activation_993[0][0]             \n",
            "                                                                 activation_998[0][0]             \n",
            "                                                                 activation_999[0][0]             \n",
            "__________________________________________________________________________________________________\n",
            "conv2d_1004 (Conv2D)            (None, 10, 10, 192)  147456      mixed6[0][0]                     \n",
            "__________________________________________________________________________________________________\n",
            "batch_normalization_1004 (Batch (None, 10, 10, 192)  576         conv2d_1004[0][0]                \n",
            "__________________________________________________________________________________________________\n",
            "activation_1004 (Activation)    (None, 10, 10, 192)  0           batch_normalization_1004[0][0]   \n",
            "__________________________________________________________________________________________________\n",
            "conv2d_1005 (Conv2D)            (None, 10, 10, 192)  258048      activation_1004[0][0]            \n",
            "__________________________________________________________________________________________________\n",
            "batch_normalization_1005 (Batch (None, 10, 10, 192)  576         conv2d_1005[0][0]                \n",
            "__________________________________________________________________________________________________\n",
            "activation_1005 (Activation)    (None, 10, 10, 192)  0           batch_normalization_1005[0][0]   \n",
            "__________________________________________________________________________________________________\n",
            "conv2d_1001 (Conv2D)            (None, 10, 10, 192)  147456      mixed6[0][0]                     \n",
            "__________________________________________________________________________________________________\n",
            "conv2d_1006 (Conv2D)            (None, 10, 10, 192)  258048      activation_1005[0][0]            \n",
            "__________________________________________________________________________________________________\n",
            "batch_normalization_1001 (Batch (None, 10, 10, 192)  576         conv2d_1001[0][0]                \n",
            "__________________________________________________________________________________________________\n",
            "batch_normalization_1006 (Batch (None, 10, 10, 192)  576         conv2d_1006[0][0]                \n",
            "__________________________________________________________________________________________________\n",
            "activation_1001 (Activation)    (None, 10, 10, 192)  0           batch_normalization_1001[0][0]   \n",
            "__________________________________________________________________________________________________\n",
            "activation_1006 (Activation)    (None, 10, 10, 192)  0           batch_normalization_1006[0][0]   \n",
            "__________________________________________________________________________________________________\n",
            "conv2d_1002 (Conv2D)            (None, 10, 10, 192)  258048      activation_1001[0][0]            \n",
            "__________________________________________________________________________________________________\n",
            "conv2d_1007 (Conv2D)            (None, 10, 10, 192)  258048      activation_1006[0][0]            \n",
            "__________________________________________________________________________________________________\n",
            "batch_normalization_1002 (Batch (None, 10, 10, 192)  576         conv2d_1002[0][0]                \n",
            "__________________________________________________________________________________________________\n",
            "batch_normalization_1007 (Batch (None, 10, 10, 192)  576         conv2d_1007[0][0]                \n",
            "__________________________________________________________________________________________________\n",
            "activation_1002 (Activation)    (None, 10, 10, 192)  0           batch_normalization_1002[0][0]   \n",
            "__________________________________________________________________________________________________\n",
            "activation_1007 (Activation)    (None, 10, 10, 192)  0           batch_normalization_1007[0][0]   \n",
            "__________________________________________________________________________________________________\n",
            "average_pooling2d_96 (AveragePo (None, 10, 10, 768)  0           mixed6[0][0]                     \n",
            "__________________________________________________________________________________________________\n",
            "conv2d_1000 (Conv2D)            (None, 10, 10, 192)  147456      mixed6[0][0]                     \n",
            "__________________________________________________________________________________________________\n",
            "conv2d_1003 (Conv2D)            (None, 10, 10, 192)  258048      activation_1002[0][0]            \n",
            "__________________________________________________________________________________________________\n",
            "conv2d_1008 (Conv2D)            (None, 10, 10, 192)  258048      activation_1007[0][0]            \n",
            "__________________________________________________________________________________________________\n",
            "conv2d_1009 (Conv2D)            (None, 10, 10, 192)  147456      average_pooling2d_96[0][0]       \n",
            "__________________________________________________________________________________________________\n",
            "batch_normalization_1000 (Batch (None, 10, 10, 192)  576         conv2d_1000[0][0]                \n",
            "__________________________________________________________________________________________________\n",
            "batch_normalization_1003 (Batch (None, 10, 10, 192)  576         conv2d_1003[0][0]                \n",
            "__________________________________________________________________________________________________\n",
            "batch_normalization_1008 (Batch (None, 10, 10, 192)  576         conv2d_1008[0][0]                \n",
            "__________________________________________________________________________________________________\n",
            "batch_normalization_1009 (Batch (None, 10, 10, 192)  576         conv2d_1009[0][0]                \n",
            "__________________________________________________________________________________________________\n",
            "activation_1000 (Activation)    (None, 10, 10, 192)  0           batch_normalization_1000[0][0]   \n",
            "__________________________________________________________________________________________________\n",
            "activation_1003 (Activation)    (None, 10, 10, 192)  0           batch_normalization_1003[0][0]   \n",
            "__________________________________________________________________________________________________\n",
            "activation_1008 (Activation)    (None, 10, 10, 192)  0           batch_normalization_1008[0][0]   \n",
            "__________________________________________________________________________________________________\n",
            "activation_1009 (Activation)    (None, 10, 10, 192)  0           batch_normalization_1009[0][0]   \n",
            "__________________________________________________________________________________________________\n",
            "mixed7 (Concatenate)            (None, 10, 10, 768)  0           activation_1000[0][0]            \n",
            "                                                                 activation_1003[0][0]            \n",
            "                                                                 activation_1008[0][0]            \n",
            "                                                                 activation_1009[0][0]            \n",
            "__________________________________________________________________________________________________\n",
            "conv2d_1012 (Conv2D)            (None, 10, 10, 192)  147456      mixed7[0][0]                     \n",
            "__________________________________________________________________________________________________\n",
            "batch_normalization_1012 (Batch (None, 10, 10, 192)  576         conv2d_1012[0][0]                \n",
            "__________________________________________________________________________________________________\n",
            "activation_1012 (Activation)    (None, 10, 10, 192)  0           batch_normalization_1012[0][0]   \n",
            "__________________________________________________________________________________________________\n",
            "conv2d_1013 (Conv2D)            (None, 10, 10, 192)  258048      activation_1012[0][0]            \n",
            "__________________________________________________________________________________________________\n",
            "batch_normalization_1013 (Batch (None, 10, 10, 192)  576         conv2d_1013[0][0]                \n",
            "__________________________________________________________________________________________________\n",
            "activation_1013 (Activation)    (None, 10, 10, 192)  0           batch_normalization_1013[0][0]   \n",
            "__________________________________________________________________________________________________\n",
            "conv2d_1010 (Conv2D)            (None, 10, 10, 192)  147456      mixed7[0][0]                     \n",
            "__________________________________________________________________________________________________\n",
            "conv2d_1014 (Conv2D)            (None, 10, 10, 192)  258048      activation_1013[0][0]            \n",
            "__________________________________________________________________________________________________\n",
            "batch_normalization_1010 (Batch (None, 10, 10, 192)  576         conv2d_1010[0][0]                \n",
            "__________________________________________________________________________________________________\n",
            "batch_normalization_1014 (Batch (None, 10, 10, 192)  576         conv2d_1014[0][0]                \n",
            "__________________________________________________________________________________________________\n",
            "activation_1010 (Activation)    (None, 10, 10, 192)  0           batch_normalization_1010[0][0]   \n",
            "__________________________________________________________________________________________________\n",
            "activation_1014 (Activation)    (None, 10, 10, 192)  0           batch_normalization_1014[0][0]   \n",
            "__________________________________________________________________________________________________\n",
            "conv2d_1011 (Conv2D)            (None, 4, 4, 320)    552960      activation_1010[0][0]            \n",
            "__________________________________________________________________________________________________\n",
            "conv2d_1015 (Conv2D)            (None, 4, 4, 192)    331776      activation_1014[0][0]            \n",
            "__________________________________________________________________________________________________\n",
            "batch_normalization_1011 (Batch (None, 4, 4, 320)    960         conv2d_1011[0][0]                \n",
            "__________________________________________________________________________________________________\n",
            "batch_normalization_1015 (Batch (None, 4, 4, 192)    576         conv2d_1015[0][0]                \n",
            "__________________________________________________________________________________________________\n",
            "activation_1011 (Activation)    (None, 4, 4, 320)    0           batch_normalization_1011[0][0]   \n",
            "__________________________________________________________________________________________________\n",
            "activation_1015 (Activation)    (None, 4, 4, 192)    0           batch_normalization_1015[0][0]   \n",
            "__________________________________________________________________________________________________\n",
            "max_pooling2d_43 (MaxPooling2D) (None, 4, 4, 768)    0           mixed7[0][0]                     \n",
            "__________________________________________________________________________________________________\n",
            "mixed8 (Concatenate)            (None, 4, 4, 1280)   0           activation_1011[0][0]            \n",
            "                                                                 activation_1015[0][0]            \n",
            "                                                                 max_pooling2d_43[0][0]           \n",
            "__________________________________________________________________________________________________\n",
            "conv2d_1020 (Conv2D)            (None, 4, 4, 448)    573440      mixed8[0][0]                     \n",
            "__________________________________________________________________________________________________\n",
            "batch_normalization_1020 (Batch (None, 4, 4, 448)    1344        conv2d_1020[0][0]                \n",
            "__________________________________________________________________________________________________\n",
            "activation_1020 (Activation)    (None, 4, 4, 448)    0           batch_normalization_1020[0][0]   \n",
            "__________________________________________________________________________________________________\n",
            "conv2d_1017 (Conv2D)            (None, 4, 4, 384)    491520      mixed8[0][0]                     \n",
            "__________________________________________________________________________________________________\n",
            "conv2d_1021 (Conv2D)            (None, 4, 4, 384)    1548288     activation_1020[0][0]            \n",
            "__________________________________________________________________________________________________\n",
            "batch_normalization_1017 (Batch (None, 4, 4, 384)    1152        conv2d_1017[0][0]                \n",
            "__________________________________________________________________________________________________\n",
            "batch_normalization_1021 (Batch (None, 4, 4, 384)    1152        conv2d_1021[0][0]                \n",
            "__________________________________________________________________________________________________\n",
            "activation_1017 (Activation)    (None, 4, 4, 384)    0           batch_normalization_1017[0][0]   \n",
            "__________________________________________________________________________________________________\n",
            "activation_1021 (Activation)    (None, 4, 4, 384)    0           batch_normalization_1021[0][0]   \n",
            "__________________________________________________________________________________________________\n",
            "conv2d_1018 (Conv2D)            (None, 4, 4, 384)    442368      activation_1017[0][0]            \n",
            "__________________________________________________________________________________________________\n",
            "conv2d_1019 (Conv2D)            (None, 4, 4, 384)    442368      activation_1017[0][0]            \n",
            "__________________________________________________________________________________________________\n",
            "conv2d_1022 (Conv2D)            (None, 4, 4, 384)    442368      activation_1021[0][0]            \n",
            "__________________________________________________________________________________________________\n",
            "conv2d_1023 (Conv2D)            (None, 4, 4, 384)    442368      activation_1021[0][0]            \n",
            "__________________________________________________________________________________________________\n",
            "average_pooling2d_97 (AveragePo (None, 4, 4, 1280)   0           mixed8[0][0]                     \n",
            "__________________________________________________________________________________________________\n",
            "conv2d_1016 (Conv2D)            (None, 4, 4, 320)    409600      mixed8[0][0]                     \n",
            "__________________________________________________________________________________________________\n",
            "batch_normalization_1018 (Batch (None, 4, 4, 384)    1152        conv2d_1018[0][0]                \n",
            "__________________________________________________________________________________________________\n",
            "batch_normalization_1019 (Batch (None, 4, 4, 384)    1152        conv2d_1019[0][0]                \n",
            "__________________________________________________________________________________________________\n",
            "batch_normalization_1022 (Batch (None, 4, 4, 384)    1152        conv2d_1022[0][0]                \n",
            "__________________________________________________________________________________________________\n",
            "batch_normalization_1023 (Batch (None, 4, 4, 384)    1152        conv2d_1023[0][0]                \n",
            "__________________________________________________________________________________________________\n",
            "conv2d_1024 (Conv2D)            (None, 4, 4, 192)    245760      average_pooling2d_97[0][0]       \n",
            "__________________________________________________________________________________________________\n",
            "batch_normalization_1016 (Batch (None, 4, 4, 320)    960         conv2d_1016[0][0]                \n",
            "__________________________________________________________________________________________________\n",
            "activation_1018 (Activation)    (None, 4, 4, 384)    0           batch_normalization_1018[0][0]   \n",
            "__________________________________________________________________________________________________\n",
            "activation_1019 (Activation)    (None, 4, 4, 384)    0           batch_normalization_1019[0][0]   \n",
            "__________________________________________________________________________________________________\n",
            "activation_1022 (Activation)    (None, 4, 4, 384)    0           batch_normalization_1022[0][0]   \n",
            "__________________________________________________________________________________________________\n",
            "activation_1023 (Activation)    (None, 4, 4, 384)    0           batch_normalization_1023[0][0]   \n",
            "__________________________________________________________________________________________________\n",
            "batch_normalization_1024 (Batch (None, 4, 4, 192)    576         conv2d_1024[0][0]                \n",
            "__________________________________________________________________________________________________\n",
            "activation_1016 (Activation)    (None, 4, 4, 320)    0           batch_normalization_1016[0][0]   \n",
            "__________________________________________________________________________________________________\n",
            "mixed9_0 (Concatenate)          (None, 4, 4, 768)    0           activation_1018[0][0]            \n",
            "                                                                 activation_1019[0][0]            \n",
            "__________________________________________________________________________________________________\n",
            "concatenate_20 (Concatenate)    (None, 4, 4, 768)    0           activation_1022[0][0]            \n",
            "                                                                 activation_1023[0][0]            \n",
            "__________________________________________________________________________________________________\n",
            "activation_1024 (Activation)    (None, 4, 4, 192)    0           batch_normalization_1024[0][0]   \n",
            "__________________________________________________________________________________________________\n",
            "mixed9 (Concatenate)            (None, 4, 4, 2048)   0           activation_1016[0][0]            \n",
            "                                                                 mixed9_0[0][0]                   \n",
            "                                                                 concatenate_20[0][0]             \n",
            "                                                                 activation_1024[0][0]            \n",
            "__________________________________________________________________________________________________\n",
            "conv2d_1029 (Conv2D)            (None, 4, 4, 448)    917504      mixed9[0][0]                     \n",
            "__________________________________________________________________________________________________\n",
            "batch_normalization_1029 (Batch (None, 4, 4, 448)    1344        conv2d_1029[0][0]                \n",
            "__________________________________________________________________________________________________\n",
            "activation_1029 (Activation)    (None, 4, 4, 448)    0           batch_normalization_1029[0][0]   \n",
            "__________________________________________________________________________________________________\n",
            "conv2d_1026 (Conv2D)            (None, 4, 4, 384)    786432      mixed9[0][0]                     \n",
            "__________________________________________________________________________________________________\n",
            "conv2d_1030 (Conv2D)            (None, 4, 4, 384)    1548288     activation_1029[0][0]            \n",
            "__________________________________________________________________________________________________\n",
            "batch_normalization_1026 (Batch (None, 4, 4, 384)    1152        conv2d_1026[0][0]                \n",
            "__________________________________________________________________________________________________\n",
            "batch_normalization_1030 (Batch (None, 4, 4, 384)    1152        conv2d_1030[0][0]                \n",
            "__________________________________________________________________________________________________\n",
            "activation_1026 (Activation)    (None, 4, 4, 384)    0           batch_normalization_1026[0][0]   \n",
            "__________________________________________________________________________________________________\n",
            "activation_1030 (Activation)    (None, 4, 4, 384)    0           batch_normalization_1030[0][0]   \n",
            "__________________________________________________________________________________________________\n",
            "conv2d_1027 (Conv2D)            (None, 4, 4, 384)    442368      activation_1026[0][0]            \n",
            "__________________________________________________________________________________________________\n",
            "conv2d_1028 (Conv2D)            (None, 4, 4, 384)    442368      activation_1026[0][0]            \n",
            "__________________________________________________________________________________________________\n",
            "conv2d_1031 (Conv2D)            (None, 4, 4, 384)    442368      activation_1030[0][0]            \n",
            "__________________________________________________________________________________________________\n",
            "conv2d_1032 (Conv2D)            (None, 4, 4, 384)    442368      activation_1030[0][0]            \n",
            "__________________________________________________________________________________________________\n",
            "average_pooling2d_98 (AveragePo (None, 4, 4, 2048)   0           mixed9[0][0]                     \n",
            "__________________________________________________________________________________________________\n",
            "conv2d_1025 (Conv2D)            (None, 4, 4, 320)    655360      mixed9[0][0]                     \n",
            "__________________________________________________________________________________________________\n",
            "batch_normalization_1027 (Batch (None, 4, 4, 384)    1152        conv2d_1027[0][0]                \n",
            "__________________________________________________________________________________________________\n",
            "batch_normalization_1028 (Batch (None, 4, 4, 384)    1152        conv2d_1028[0][0]                \n",
            "__________________________________________________________________________________________________\n",
            "batch_normalization_1031 (Batch (None, 4, 4, 384)    1152        conv2d_1031[0][0]                \n",
            "__________________________________________________________________________________________________\n",
            "batch_normalization_1032 (Batch (None, 4, 4, 384)    1152        conv2d_1032[0][0]                \n",
            "__________________________________________________________________________________________________\n",
            "conv2d_1033 (Conv2D)            (None, 4, 4, 192)    393216      average_pooling2d_98[0][0]       \n",
            "__________________________________________________________________________________________________\n",
            "batch_normalization_1025 (Batch (None, 4, 4, 320)    960         conv2d_1025[0][0]                \n",
            "__________________________________________________________________________________________________\n",
            "activation_1027 (Activation)    (None, 4, 4, 384)    0           batch_normalization_1027[0][0]   \n",
            "__________________________________________________________________________________________________\n",
            "activation_1028 (Activation)    (None, 4, 4, 384)    0           batch_normalization_1028[0][0]   \n",
            "__________________________________________________________________________________________________\n",
            "activation_1031 (Activation)    (None, 4, 4, 384)    0           batch_normalization_1031[0][0]   \n",
            "__________________________________________________________________________________________________\n",
            "activation_1032 (Activation)    (None, 4, 4, 384)    0           batch_normalization_1032[0][0]   \n",
            "__________________________________________________________________________________________________\n",
            "batch_normalization_1033 (Batch (None, 4, 4, 192)    576         conv2d_1033[0][0]                \n",
            "__________________________________________________________________________________________________\n",
            "activation_1025 (Activation)    (None, 4, 4, 320)    0           batch_normalization_1025[0][0]   \n",
            "__________________________________________________________________________________________________\n",
            "mixed9_1 (Concatenate)          (None, 4, 4, 768)    0           activation_1027[0][0]            \n",
            "                                                                 activation_1028[0][0]            \n",
            "__________________________________________________________________________________________________\n",
            "concatenate_21 (Concatenate)    (None, 4, 4, 768)    0           activation_1031[0][0]            \n",
            "                                                                 activation_1032[0][0]            \n",
            "__________________________________________________________________________________________________\n",
            "activation_1033 (Activation)    (None, 4, 4, 192)    0           batch_normalization_1033[0][0]   \n",
            "__________________________________________________________________________________________________\n",
            "mixed10 (Concatenate)           (None, 4, 4, 2048)   0           activation_1025[0][0]            \n",
            "                                                                 mixed9_1[0][0]                   \n",
            "                                                                 concatenate_21[0][0]             \n",
            "                                                                 activation_1033[0][0]            \n",
            "==================================================================================================\n",
…
        ")\n",
        "\n",
        "model.summary()"
      ],
      "execution_count": 208,
      "outputs": [
        {
          "output_type": "stream",
          "text": [
            "Model: \"functional_27\"\n",
            "__________________________________________________________________________________________________\n",
            "Layer (type)                    Output Shape         Param #     Connected to                     \n",
            "==================================================================================================\n",
            "input_11 (InputLayer)           [(None, 200, 200, 3) 0                                            \n",
            "__________________________________________________________________________________________________\n",
            "conv2d_940 (Conv2D)             (None, 99, 99, 32)   864         input_11[0][0]                   \n",
            "__________________________________________________________________________________________________\n",
            "batch_normalization_940 (BatchN (None, 99, 99, 32)   96          conv2d_940[0][0]                 \n",
            "__________________________________________________________________________________________________\n",
            "activation_940 (Activation)     (None, 99, 99, 32)   0           batch_normalization_940[0][0]    \n",
            "__________________________________________________________________________________________________\n",
            "conv2d_941 (Conv2D)             (None, 97, 97, 32)   9216        activation_940[0][0]             \n",
            "__________________________________________________________________________________________________\n",
            "batch_normalization_941 (BatchN (None, 97, 97, 32)   96          conv2d_941[0][0]                 \n",
            "__________________________________________________________________________________________________\n",
            "activation_941 (Activation)     (None, 97, 97, 32)   0           batch_normalization_941[0][0]    \n",
            "__________________________________________________________________________________________________\n",
            "conv2d_942 (Conv2D)             (None, 97, 97, 64)   18432       activation_941[0][0]             \n",
            "__________________________________________________________________________________________________\n",
            "batch_normalization_942 (BatchN (None, 97, 97, 64)   192         conv2d_942[0][0]                 \n",
            "__________________________________________________________________________________________________\n",
            "activation_942 (Activation)     (None, 97, 97, 64)   0           batch_normalization_942[0][0]    \n",
            "__________________________________________________________________________________________________\n",
            "max_pooling2d_40 (MaxPooling2D) (None, 48, 48, 64)   0           activation_942[0][0]             \n",
            "__________________________________________________________________________________________________\n",
            "conv2d_943 (Conv2D)             (None, 48, 48, 80)   5120        max_pooling2d_40[0][0]           \n",
            "__________________________________________________________________________________________________\n",
            "batch_normalization_943 (BatchN (None, 48, 48, 80)   240         conv2d_943[0][0]                 \n",
            "__________________________________________________________________________________________________\n",
            "activation_943 (Activation)     (None, 48, 48, 80)   0           batch_normalization_943[0][0]    \n",
            "__________________________________________________________________________________________________\n",
            "conv2d_944 (Conv2D)             (None, 46, 46, 192)  138240      activation_943[0][0]             \n",
            "__________________________________________________________________________________________________\n",
            "batch_normalization_944 (BatchN (None, 46, 46, 192)  576         conv2d_944[0][0]                 \n",
            "__________________________________________________________________________________________________\n",
            "activation_944 (Activation)     (None, 46, 46, 192)  0           batch_normalization_944[0][0]    \n",
            "__________________________________________________________________________________________________\n",
            "max_pooling2d_41 (MaxPooling2D) (None, 22, 22, 192)  0           activation_944[0][0]             \n",
            "__________________________________________________________________________________________________\n",
            "conv2d_948 (Conv2D)             (None, 22, 22, 64)   12288       max_pooling2d_41[0][0]           \n",
            "__________________________________________________________________________________________________\n",
            "batch_normalization_948 (BatchN (None, 22, 22, 64)   192         conv2d_948[0][0]                 \n",
            "__________________________________________________________________________________________________\n",
            "activation_948 (Activation)     (None, 22, 22, 64)   0           batch_normalization_948[0][0]    \n",
            "__________________________________________________________________________________________________\n",
            "conv2d_946 (Conv2D)             (None, 22, 22, 48)   9216        max_pooling2d_41[0][0]           \n",
            "__________________________________________________________________________________________________\n",
            "conv2d_949 (Conv2D)             (None, 22, 22, 96)   55296       activation_948[0][0]             \n",
            "__________________________________________________________________________________________________\n",
            "batch_normalization_946 (BatchN (None, 22, 22, 48)   144         conv2d_946[0][0]                 \n",
            "__________________________________________________________________________________________________\n",
            "batch_normalization_949 (BatchN (None, 22, 22, 96)   288         conv2d_949[0][0]                 \n",
            "__________________________________________________________________________________________________\n",
            "activation_946 (Activation)     (None, 22, 22, 48)   0           batch_normalization_946[0][0]    \n",
            "__________________________________________________________________________________________________\n",
            "activation_949 (Activation)     (None, 22, 22, 96)   0           batch_normalization_949[0][0]    \n",
            "__________________________________________________________________________________________________\n",
            "average_pooling2d_90 (AveragePo (None, 22, 22, 192)  0           max_pooling2d_41[0][0]           \n",
            "__________________________________________________________________________________________________\n",
            "conv2d_945 (Conv2D)             (None, 22, 22, 64)   12288       max_pooling2d_41[0][0]           \n",
            "__________________________________________________________________________________________________\n",
            "conv2d_947 (Conv2D)             (None, 22, 22, 64)   76800       activation_946[0][0]             \n",
            "__________________________________________________________________________________________________\n",
            "conv2d_950 (Conv2D)             (None, 22, 22, 96)   82944       activation_949[0][0]             \n",
            "__________________________________________________________________________________________________\n",
            "conv2d_951 (Conv2D)             (None, 22, 22, 32)   6144        average_pooling2d_90[0][0]       \n",
            "__________________________________________________________________________________________________\n",
            "batch_normalization_945 (BatchN (None, 22, 22, 64)   192         conv2d_945[0][0]                 \n",
            "__________________________________________________________________________________________________\n",
            "batch_normalization_947 (BatchN (None, 22, 22, 64)   192         conv2d_947[0][0]                 \n",
            "__________________________________________________________________________________________________\n",
            "batch_normalization_950 (BatchN (None, 22, 22, 96)   288         conv2d_950[0][0]                 \n",
            "__________________________________________________________________________________________________\n",
            "batch_normalization_951 (BatchN (None, 22, 22, 32)   96          conv2d_951[0][0]                 \n",
            "__________________________________________________________________________________________________\n",
            "activation_945 (Activation)     (None, 22, 22, 64)   0           batch_normalization_945[0][0]    \n",
            "__________________________________________________________________________________________________\n",
            "activation_947 (Activation)     (None, 22, 22, 64)   0           batch_normalization_947[0][0]    \n",
            "__________________________________________________________________________________________________\n",
            "activation_950 (Activation)     (None, 22, 22, 96)   0           batch_normalization_950[0][0]    \n",
            "__________________________________________________________________________________________________\n",
            "activation_951 (Activation)     (None, 22, 22, 32)   0           batch_normalization_951[0][0]    \n",
            "__________________________________________________________________________________________________\n",
            "mixed0 (Concatenate)            (None, 22, 22, 256)  0           activation_945[0][0]             \n",
            "                                                                 activation_947[0][0]             \n",
            "                                                                 activation_950[0][0]             \n",
            "                                                                 activation_951[0][0]             \n",
            "__________________________________________________________________________________________________\n",
            "conv2d_955 (Conv2D)             (None, 22, 22, 64)   16384       mixed0[0][0]                     \n",
            "__________________________________________________________________________________________________\n",
            "batch_normalization_955 (BatchN (None, 22, 22, 64)   192         conv2d_955[0][0]                 \n",
            "__________________________________________________________________________________________________\n",
            "activation_955 (Activation)     (None, 22, 22, 64)   0           batch_normalization_955[0][0]    \n",
            "__________________________________________________________________________________________________\n",
            "conv2d_953 (Conv2D)             (None, 22, 22, 48)   12288       mixed0[0][0]                     \n",
            "__________________________________________________________________________________________________\n",
            "conv2d_956 (Conv2D)             (None, 22, 22, 96)   55296       activation_955[0][0]             \n",
            "__________________________________________________________________________________________________\n",
            "batch_normalization_953 (BatchN (None, 22, 22, 48)   144         conv2d_953[0][0]                 \n",
            "__________________________________________________________________________________________________\n",
            "batch_normalization_956 (BatchN (None, 22, 22, 96)   288         conv2d_956[0][0]                 \n",
            "__________________________________________________________________________________________________\n",
            "activation_953 (Activation)     (None, 22, 22, 48)   0           batch_normalization_953[0][0]    \n",
            "__________________________________________________________________________________________________\n",
            "activation_956 (Activation)     (None, 22, 22, 96)   0           batch_normalization_956[0][0]    \n",
            "__________________________________________________________________________________________________\n",
            "average_pooling2d_91 (AveragePo (None, 22, 22, 256)  0           mixed0[0][0]                     \n",
            "__________________________________________________________________________________________________\n",
            "conv2d_952 (Conv2D)             (None, 22, 22, 64)   16384       mixed0[0][0]                     \n",
            "__________________________________________________________________________________________________\n",
            "conv2d_954 (Conv2D)             (None, 22, 22, 64)   76800       activation_953[0][0]             \n",
            "__________________________________________________________________________________________________\n",
            "conv2d_957 (Conv2D)             (None, 22, 22, 96)   82944       activation_956[0][0]             \n",
            "__________________________________________________________________________________________________\n",
            "conv2d_958 (Conv2D)             (None, 22, 22, 64)   16384       average_pooling2d_91[0][0]       \n",
            "__________________________________________________________________________________________________\n",
            "batch_normalization_952 (BatchN (None, 22, 22, 64)   192         conv2d_952[0][0]                 \n",
            "__________________________________________________________________________________________________\n",
            "batch_normalization_954 (BatchN (None, 22, 22, 64)   192         conv2d_954[0][0]                 \n",
            "__________________________________________________________________________________________________\n",
            "batch_normalization_957 (BatchN (None, 22, 22, 96)   288         conv2d_957[0][0]                 \n",
            "__________________________________________________________________________________________________\n",
            "batch_normalization_958 (BatchN (None, 22, 22, 64)   192         conv2d_958[0][0]                 \n",
            "__________________________________________________________________________________________________\n",
            "activation_952 (Activation)     (None, 22, 22, 64)   0           batch_normalization_952[0][0]    \n",
            "__________________________________________________________________________________________________\n",
            "activation_954 (Activation)     (None, 22, 22, 64)   0           batch_normalization_954[0][0]    \n",
            "__________________________________________________________________________________________________\n",
            "activation_957 (Activation)     (None, 22, 22, 96)   0           batch_normalization_957[0][0]    \n",
            "__________________________________________________________________________________________________\n",
            "activation_958 (Activation)     (None, 22, 22, 64)   0           batch_normalization_958[0][0]    \n",
            "__________________________________________________________________________________________________\n",
            "mixed1 (Concatenate)            (None, 22, 22, 288)  0           activation_952[0][0]             \n",
            "                                                                 activation_954[0][0]             \n",
            "                                                                 activation_957[0][0]             \n",
            "                                                                 activation_958[0][0]             \n",
            "__________________________________________________________________________________________________\n",
            "conv2d_962 (Conv2D)             (None, 22, 22, 64)   18432       mixed1[0][0]                     \n",
            "__________________________________________________________________________________________________\n",
            "batch_normalization_962 (BatchN (None, 22, 22, 64)   192         conv2d_962[0][0]                 \n",
            "__________________________________________________________________________________________________\n",
            "activation_962 (Activation)     (None, 22, 22, 64)   0           batch_normalization_962[0][0]    \n",
            "__________________________________________________________________________________________________\n",
            "conv2d_960 (Conv2D)             (None, 22, 22, 48)   13824       mixed1[0][0]                     \n",
            "__________________________________________________________________________________________________\n",
            "conv2d_963 (Conv2D)             (None, 22, 22, 96)   55296       activation_962[0][0]             \n",
            "__________________________________________________________________________________________________\n",
            "batch_normalization_960 (BatchN (None, 22, 22, 48)   144         conv2d_960[0][0]                 \n",
            "__________________________________________________________________________________________________\n",
            "batch_normalization_963 (BatchN (None, 22, 22, 96)   288         conv2d_963[0][0]                 \n",
            "__________________________________________________________________________________________________\n",
            "activation_960 (Activation)     (None, 22, 22, 48)   0           batch_normalization_960[0][0]    \n",
            "__________________________________________________________________________________________________\n",
            "activation_963 (Activation)     (None, 22, 22, 96)   0           batch_normalization_963[0][0]    \n",
            "__________________________________________________________________________________________________\n",
            "average_pooling2d_92 (AveragePo (None, 22, 22, 288)  0           mixed1[0][0]                     \n",
            "__________________________________________________________________________________________________\n",
            "conv2d_959 (Conv2D)             (None, 22, 22, 64)   18432       mixed1[0][0]                     \n",
            "__________________________________________________________________________________________________\n",
            "conv2d_961 (Conv2D)             (None, 22, 22, 64)   76800       activation_960[0][0]             \n",
            "__________________________________________________________________________________________________\n",
            "conv2d_964 (Conv2D)             (None, 22, 22, 96)   82944       activation_963[0][0]             \n",
            "__________________________________________________________________________________________________\n",
            "conv2d_965 (Conv2D)             (None, 22, 22, 64)   18432       average_pooling2d_92[0][0]       \n",
            "__________________________________________________________________________________________________\n",
            "batch_normalization_959 (BatchN (None, 22, 22, 64)   192         conv2d_959[0][0]                 \n",
            "__________________________________________________________________________________________________\n",
            "batch_normalization_961 (BatchN (None, 22, 22, 64)   192         conv2d_961[0][0]                 \n",
            "__________________________________________________________________________________________________\n",
            "batch_normalization_964 (BatchN (None, 22, 22, 96)   288         conv2d_964[0][0]                 \n",
            "__________________________________________________________________________________________________\n",
            "batch_normalization_965 (BatchN (None, 22, 22, 64)   192         conv2d_965[0][0]                 \n",
            "__________________________________________________________________________________________________\n",
            "activation_959 (Activation)     (None, 22, 22, 64)   0           batch_normalization_959[0][0]    \n",
            "__________________________________________________________________________________________________\n",
            "activation_961 (Activation)     (None, 22, 22, 64)   0           batch_normalization_961[0][0]    \n",
            "__________________________________________________________________________________________________\n",
            "activation_964 (Activation)     (None, 22, 22, 96)   0           batch_normalization_964[0][0]    \n",
            "__________________________________________________________________________________________________\n",
            "activation_965 (Activation)     (None, 22, 22, 64)   0           batch_normalization_965[0][0]    \n",
            "__________________________________________________________________________________________________\n",
            "mixed2 (Concatenate)            (None, 22, 22, 288)  0           activation_959[0][0]             \n",
            "                                                                 activation_961[0][0]             \n",
            "                                                                 activation_964[0][0]             \n",
            "                                                                 activation_965[0][0]             \n",
            "__________________________________________________________________________________________________\n",
            "conv2d_967 (Conv2D)             (None, 22, 22, 64)   18432       mixed2[0][0]                     \n",
            "__________________________________________________________________________________________________\n",
            "batch_normalization_967 (BatchN (None, 22, 22, 64)   192         conv2d_967[0][0]                 \n",
            "__________________________________________________________________________________________________\n",
            "activation_967 (Activation)     (None, 22, 22, 64)   0           batch_normalization_967[0][0]    \n",
            "__________________________________________________________________________________________________\n",
            "conv2d_968 (Conv2D)             (None, 22, 22, 96)   55296       activation_967[0][0]             \n",
            "__________________________________________________________________________________________________\n",
            "batch_normalization_968 (BatchN (None, 22, 22, 96)   288         conv2d_968[0][0]                 \n",
            "__________________________________________________________________________________________________\n",
            "activation_968 (Activation)     (None, 22, 22, 96)   0           batch_normalization_968[0][0]    \n",
            "__________________________________________________________________________________________________\n",
            "conv2d_966 (Conv2D)             (None, 10, 10, 384)  995328      mixed2[0][0]                     \n",
            "__________________________________________________________________________________________________\n",
            "conv2d_969 (Conv2D)             (None, 10, 10, 96)   82944       activation_968[0][0]             \n",
            "__________________________________________________________________________________________________\n",
            "batch_normalization_966 (BatchN (None, 10, 10, 384)  1152        conv2d_966[0][0]                 \n",
            "__________________________________________________________________________________________________\n",
            "batch_normalization_969 (BatchN (None, 10, 10, 96)   288         conv2d_969[0][0]                 \n",
            "__________________________________________________________________________________________________\n",
            "activation_966 (Activation)     (None, 10, 10, 384)  0           batch_normalization_966[0][0]    \n",
            "__________________________________________________________________________________________________\n",
            "activation_969 (Activation)     (None, 10, 10, 96)   0           batch_normalization_969[0][0]    \n",
            "__________________________________________________________________________________________________\n",
            "max_pooling2d_42 (MaxPooling2D) (None, 10, 10, 288)  0           mixed2[0][0]                     \n",
            "__________________________________________________________________________________________________\n",
            "mixed3 (Concatenate)            (None, 10, 10, 768)  0           activation_966[0][0]             \n",
            "                                                                 activation_969[0][0]             \n",
            "                                                                 max_pooling2d_42[0][0]           \n",
            "__________________________________________________________________________________________________\n",
            "conv2d_974 (Conv2D)             (None, 10, 10, 128)  98304       mixed3[0][0]                     \n",
            "__________________________________________________________________________________________________\n",
            "batch_normalization_974 (BatchN (None, 10, 10, 128)  384         conv2d_974[0][0]                 \n",
            "__________________________________________________________________________________________________\n",
            "activation_974 (Activation)     (None, 10, 10, 128)  0           batch_normalization_974[0][0]    \n",
            "__________________________________________________________________________________________________\n",
            "conv2d_975 (Conv2D)             (None, 10, 10, 128)  114688      activation_974[0][0]             \n",
            "__________________________________________________________________________________________________\n",
            "batch_normalization_975 (BatchN (None, 10, 10, 128)  384         conv2d_975[0][0]                 \n",
            "__________________________________________________________________________________________________\n",
            "activation_975 (Activation)     (None, 10, 10, 128)  0           batch_normalization_975[0][0]    \n",
            "__________________________________________________________________________________________________\n",
            "conv2d_971 (Conv2D)             (None, 10, 10, 128)  98304       mixed3[0][0]                     \n",
            "__________________________________________________________________________________________________\n",
            "conv2d_976 (Conv2D)             (None, 10, 10, 128)  114688      activation_975[0][0]             \n",
            "__________________________________________________________________________________________________\n",
            "batch_normalization_971 (BatchN (None, 10, 10, 128)  384         conv2d_971[0][0]                 \n",
            "__________________________________________________________________________________________________\n",
            "batch_normalization_976 (BatchN (None, 10, 10, 128)  384         conv2d_976[0][0]                 \n",
            "__________________________________________________________________________________________________\n",
            "activation_971 (Activation)     (None, 10, 10, 128)  0           batch_normalization_971[0][0]    \n",
            "__________________________________________________________________________________________________\n",
            "activation_976 (Activation)     (None, 10, 10, 128)  0           batch_normalization_976[0][0]    \n",
            "__________________________________________________________________________________________________\n",
            "conv2d_972 (Conv2D)             (None, 10, 10, 128)  114688      activation_971[0][0]             \n",
            "__________________________________________________________________________________________________\n",
            "conv2d_977 (Conv2D)             (None, 10, 10, 128)  114688      activation_976[0][0]             \n",
            "__________________________________________________________________________________________________\n",
            "batch_normalization_972 (BatchN (None, 10, 10, 128)  384         conv2d_972[0][0]                 \n",
            "__________________________________________________________________________________________________\n",
            "batch_normalization_977 (BatchN (None, 10, 10, 128)  384         conv2d_977[0][0]                 \n",
            "__________________________________________________________________________________________________\n",
            "activation_972 (Activation)     (None, 10, 10, 128)  0           batch_normalization_972[0][0]    \n",
            "__________________________________________________________________________________________________\n",
            "activation_977 (Activation)     (None, 10, 10, 128)  0           batch_normalization_977[0][0]    \n",
            "__________________________________________________________________________________________________\n",
            "average_pooling2d_93 (AveragePo (None, 10, 10, 768)  0           mixed3[0][0]                     \n",
            "__________________________________________________________________________________________________\n",
            "conv2d_970 (Conv2D)             (None, 10, 10, 192)  147456      mixed3[0][0]                     \n",
            "__________________________________________________________________________________________________\n",
            "conv2d_973 (Conv2D)             (None, 10, 10, 192)  172032      activation_972[0][0]             \n",
            "__________________________________________________________________________________________________\n",
            "conv2d_978 (Conv2D)             (None, 10, 10, 192)  172032      activation_977[0][0]             \n",
            "__________________________________________________________________________________________________\n",
            "conv2d_979 (Conv2D)             (None, 10, 10, 192)  147456      average_pooling2d_93[0][0]       \n",
            "__________________________________________________________________________________________________\n",
            "batch_normalization_970 (BatchN (None, 10, 10, 192)  576         conv2d_970[0][0]                 \n",
            "__________________________________________________________________________________________________\n",
            "batch_normalization_973 (BatchN (None, 10, 10, 192)  576         conv2d_973[0][0]                 \n",
            "__________________________________________________________________________________________________\n",
            "batch_normalization_978 (BatchN (None, 10, 10, 192)  576         conv2d_978[0][0]                 \n",
            "__________________________________________________________________________________________________\n",
            "batch_normalization_979 (BatchN (None, 10, 10, 192)  576         conv2d_979[0][0]                 \n",
            "__________________________________________________________________________________________________\n",
            "activation_970 (Activation)     (None, 10, 10, 192)  0           batch_normalization_970[0][0]    \n",
            "__________________________________________________________________________________________________\n",
            "activation_973 (Activation)     (None, 10, 10, 192)  0           batch_normalization_973[0][0]    \n",
            "__________________________________________________________________________________________________\n",
            "activation_978 (Activation)     (None, 10, 10, 192)  0           batch_normalization_978[0][0]    \n",
            "__________________________________________________________________________________________________\n",
            "activation_979 (Activation)     (None, 10, 10, 192)  0           batch_normalization_979[0][0]    \n",
            "__________________________________________________________________________________________________\n",
            "mixed4 (Concatenate)            (None, 10, 10, 768)  0           activation_970[0][0]             \n",
            "                                                                 activation_973[0][0]             \n",
            "                                                                 activation_978[0][0]             \n",
            "                                                                 activation_979[0][0]             \n",
            "__________________________________________________________________________________________________\n",
            "conv2d_984 (Conv2D)             (None, 10, 10, 160)  122880      mixed4[0][0]                     \n",
            "__________________________________________________________________________________________________\n",
            "batch_normalization_984 (BatchN (None, 10, 10, 160)  480         conv2d_984[0][0]                 \n",
            "__________________________________________________________________________________________________\n",
            "activation_984 (Activation)     (None, 10, 10, 160)  0           batch_normalization_984[0][0]    \n",
            "__________________________________________________________________________________________________\n",
            "conv2d_985 (Conv2D)             (None, 10, 10, 160)  179200      activation_984[0][0]             \n",
            "__________________________________________________________________________________________________\n",
            "batch_normalization_985 (BatchN (None, 10, 10, 160)  480         conv2d_985[0][0]                 \n",
            "__________________________________________________________________________________________________\n",
            "activation_985 (Activation)     (None, 10, 10, 160)  0           batch_normalization_985[0][0]    \n",
            "__________________________________________________________________________________________________\n",
            "conv2d_981 (Conv2D)             (None, 10, 10, 160)  122880      mixed4[0][0]                     \n",
            "__________________________________________________________________________________________________\n",
            "conv2d_986 (Conv2D)             (None, 10, 10, 160)  179200      activation_985[0][0]             \n",
            "__________________________________________________________________________________________________\n",
            "batch_normalization_981 (BatchN (None, 10, 10, 160)  480         conv2d_981[0][0]                 \n",
            "__________________________________________________________________________________________________\n",
            "batch_normalization_986 (BatchN (None, 10, 10, 160)  480         conv2d_986[0][0]                 \n",
            "__________________________________________________________________________________________________\n",
            "activation_981 (Activation)     (None, 10, 10, 160)  0           batch_normalization_981[0][0]    \n",
            "__________________________________________________________________________________________________\n",
            "activation_986 (Activation)     (None, 10, 10, 160)  0           batch_normalization_986[0][0]    \n",
            "__________________________________________________________________________________________________\n",
            "conv2d_982 (Conv2D)             (None, 10, 10, 160)  179200      activation_981[0][0]             \n",
            "__________________________________________________________________________________________________\n",
            "conv2d_987 (Conv2D)             (None, 10, 10, 160)  179200      activation_986[0][0]             \n",
            "__________________________________________________________________________________________________\n",
            "batch_normalization_982 (BatchN (None, 10, 10, 160)  480         conv2d_982[0][0]                 \n",
            "__________________________________________________________________________________________________\n",
            "batch_normalization_987 (BatchN (None, 10, 10, 160)  480         conv2d_987[0][0]                 \n",
            "__________________________________________________________________________________________________\n",
            "activation_982 (Activation)     (None, 10, 10, 160)  0           batch_normalization_982[0][0]    \n",
            "__________________________________________________________________________________________________\n",
            "activation_987 (Activation)     (None, 10, 10, 160)  0           batch_normalization_987[0][0]    \n",
            "__________________________________________________________________________________________________\n",
            "average_pooling2d_94 (AveragePo (None, 10, 10, 768)  0           mixed4[0][0]                     \n",
            "__________________________________________________________________________________________________\n",
            "conv2d_980 (Conv2D)             (None, 10, 10, 192)  147456      mixed4[0][0]                     \n",
            "__________________________________________________________________________________________________\n",
            "conv2d_983 (Conv2D)             (None, 10, 10, 192)  215040      activation_982[0][0]             \n",
            "__________________________________________________________________________________________________\n",
            "conv2d_988 (Conv2D)             (None, 10, 10, 192)  215040      activation_987[0][0]             \n",
            "__________________________________________________________________________________________________\n",
            "conv2d_989 (Conv2D)             (None, 10, 10, 192)  147456      average_pooling2d_94[0][0]       \n",
            "__________________________________________________________________________________________________\n",
            "batch_normalization_980 (BatchN (None, 10, 10, 192)  576         conv2d_980[0][0]                 \n",
            "__________________________________________________________________________________________________\n",
            "batch_normalization_983 (BatchN (None, 10, 10, 192)  576         conv2d_983[0][0]                 \n",
            "__________________________________________________________________________________________________\n",
            "batch_normalization_988 (BatchN (None, 10, 10, 192)  576         conv2d_988[0][0]                 \n",
            "__________________________________________________________________________________________________\n",
            "batch_normalization_989 (BatchN (None, 10, 10, 192)  576         conv2d_989[0][0]                 \n",
            "__________________________________________________________________________________________________\n",
            "activation_980 (Activation)     (None, 10, 10, 192)  0           batch_normalization_980[0][0]    \n",
            "__________________________________________________________________________________________________\n",
            "activation_983 (Activation)     (None, 10, 10, 192)  0           batch_normalization_983[0][0]    \n",
            "__________________________________________________________________________________________________\n",
            "activation_988 (Activation)     (None, 10, 10, 192)  0           batch_normalization_988[0][0]    \n",
            "__________________________________________________________________________________________________\n",
            "activation_989 (Activation)     (None, 10, 10, 192)  0           batch_normalization_989[0][0]    \n",
            "__________________________________________________________________________________________________\n",
            "mixed5 (Concatenate)            (None, 10, 10, 768)  0           activation_980[0][0]             \n",
            "                                                                 activation_983[0][0]             \n",
            "                                                                 activation_988[0][0]             \n",
            "                                                                 activation_989[0][0]             \n",
            "__________________________________________________________________________________________________\n",
            "conv2d_994 (Conv2D)             (None, 10, 10, 160)  122880      mixed5[0][0]                     \n",
            "__________________________________________________________________________________________________\n",
            "batch_normalization_994 (BatchN (None, 10, 10, 160)  480         conv2d_994[0][0]                 \n",
            "__________________________________________________________________________________________________\n",
            "activation_994 (Activation)     (None, 10, 10, 160)  0           batch_normalization_994[0][0]    \n",
            "__________________________________________________________________________________________________\n",
            "conv2d_995 (Conv2D)             (None, 10, 10, 160)  179200      activation_994[0][0]             \n",
            "__________________________________________________________________________________________________\n",
            "batch_normalization_995 (BatchN (None, 10, 10, 160)  480         conv2d_995[0][0]                 \n",
            "__________________________________________________________________________________________________\n",
            "activation_995 (Activation)     (None, 10, 10, 160)  0           batch_normalization_995[0][0]    \n",
            "__________________________________________________________________________________________________\n",
            "conv2d_991 (Conv2D)             (None, 10, 10, 160)  122880      mixed5[0][0]                     \n",
            "__________________________________________________________________________________________________\n",
            "conv2d_996 (Conv2D)             (None, 10, 10, 160)  179200      activation_995[0][0]             \n",
            "__________________________________________________________________________________________________\n",
            "batch_normalization_991 (BatchN (None, 10, 10, 160)  480         conv2d_991[0][0]                 \n",
            "__________________________________________________________________________________________________\n",
            "batch_normalization_996 (BatchN (None, 10, 10, 160)  480         conv2d_996[0][0]                 \n",
            "__________________________________________________________________________________________________\n",
            "activation_991 (Activation)     (None, 10, 10, 160)  0           batch_normalization_991[0][0]    \n",
            "__________________________________________________________________________________________________\n",
            "activation_996 (Activation)     (None, 10, 10, 160)  0           batch_normalization_996[0][0]    \n",
            "__________________________________________________________________________________________________\n",
            "conv2d_992 (Conv2D)             (None, 10, 10, 160)  179200      activation_991[0][0]             \n",
            "__________________________________________________________________________________________________\n",
            "conv2d_997 (Conv2D)             (None, 10, 10, 160)  179200      activation_996[0][0]             \n",
            "__________________________________________________________________________________________________\n",
            "batch_normalization_992 (BatchN (None, 10, 10, 160)  480         conv2d_992[0][0]                 \n",
            "__________________________________________________________________________________________________\n",
            "batch_normalization_997 (BatchN (None, 10, 10, 160)  480         conv2d_997[0][0]                 \n",
            "__________________________________________________________________________________________________\n",
            "activation_992 (Activation)     (None, 10, 10, 160)  0           batch_normalization_992[0][0]    \n",
            "__________________________________________________________________________________________________\n",
            "activation_997 (Activation)     (None, 10, 10, 160)  0           batch_normalization_997[0][0]    \n",
            "__________________________________________________________________________________________________\n",
            "average_pooling2d_95 (AveragePo (None, 10, 10, 768)  0           mixed5[0][0]                     \n",
            "__________________________________________________________________________________________________\n",
            "conv2d_990 (Conv2D)             (None, 10, 10, 192)  147456      mixed5[0][0]                     \n",
            "__________________________________________________________________________________________________\n",
            "conv2d_993 (Conv2D)             (None, 10, 10, 192)  215040      activation_992[0][0]             \n",
            "__________________________________________________________________________________________________\n",
            "conv2d_998 (Conv2D)             (None, 10, 10, 192)  215040      activation_997[0][0]             \n",
            "__________________________________________________________________________________________________\n",
            "conv2d_999 (Conv2D)             (None, 10, 10, 192)  147456      average_pooling2d_95[0][0]       \n",
            "__________________________________________________________________________________________________\n",
            "batch_normalization_990 (BatchN (None, 10, 10, 192)  576         conv2d_990[0][0]                 \n",
            "__________________________________________________________________________________________________\n",
            "batch_normalization_993 (BatchN (None, 10, 10, 192)  576         conv2d_993[0][0]                 \n",
            "__________________________________________________________________________________________________\n",
            "batch_normalization_998 (BatchN (None, 10, 10, 192)  576         conv2d_998[0][0]                 \n",
            "__________________________________________________________________________________________________\n",
            "batch_normalization_999 (BatchN (None, 10, 10, 192)  576         conv2d_999[0][0]                 \n",
            "__________________________________________________________________________________________________\n",
            "activation_990 (Activation)     (None, 10, 10, 192)  0           batch_normalization_990[0][0]    \n",
            "__________________________________________________________________________________________________\n",
            "activation_993 (Activation)     (None, 10, 10, 192)  0           batch_normalization_993[0][0]    \n",
            "__________________________________________________________________________________________________\n",
            "activation_998 (Activation)     (None, 10, 10, 192)  0           batch_normalization_998[0][0]    \n",
            "__________________________________________________________________________________________________\n",
            "activation_999 (Activation)     (None, 10, 10, 192)  0           batch_normalization_999[0][0]    \n",
            "__________________________________________________________________________________________________\n",
            "mixed6 (Concatenate)            (None, 10, 10, 768)  0           activation_990[0][0]             \n",
            "                                                                 activation_993[0][0]             \n",
            "                                                                 activation_998[0][0]             \n",
            "                                                                 activation_999[0][0]             \n",
            "__________________________________________________________________________________________________\n",
            "conv2d_1004 (Conv2D)            (None, 10, 10, 192)  147456      mixed6[0][0]                     \n",
            "__________________________________________________________________________________________________\n",
            "batch_normalization_1004 (Batch (None, 10, 10, 192)  576         conv2d_1004[0][0]                \n",
            "__________________________________________________________________________________________________\n",
            "activation_1004 (Activation)    (None, 10, 10, 192)  0           batch_normalization_1004[0][0]   \n",
            "__________________________________________________________________________________________________\n",
            "conv2d_1005 (Conv2D)            (None, 10, 10, 192)  258048      activation_1004[0][0]            \n",
            "__________________________________________________________________________________________________\n",
            "batch_normalization_1005 (Batch (None, 10, 10, 192)  576         conv2d_1005[0][0]                \n",
            "__________________________________________________________________________________________________\n",
            "activation_1005 (Activation)    (None, 10, 10, 192)  0           batch_normalization_1005[0][0]   \n",
            "__________________________________________________________________________________________________\n",
            "conv2d_1001 (Conv2D)            (None, 10, 10, 192)  147456      mixed6[0][0]                     \n",
            "__________________________________________________________________________________________________\n",
            "conv2d_1006 (Conv2D)            (None, 10, 10, 192)  258048      activation_1005[0][0]            \n",
            "__________________________________________________________________________________________________\n",
            "batch_normalization_1001 (Batch (None, 10, 10, 192)  576         conv2d_1001[0][0]                \n",
            "__________________________________________________________________________________________________\n",
            "batch_normalization_1006 (Batch (None, 10, 10, 192)  576         conv2d_1006[0][0]                \n",
            "__________________________________________________________________________________________________\n",
            "activation_1001 (Activation)    (None, 10, 10, 192)  0           batch_normalization_1001[0][0]   \n",
            "__________________________________________________________________________________________________\n",
            "activation_1006 (Activation)    (None, 10, 10, 192)  0           batch_normalization_1006[0][0]   \n",
            "__________________________________________________________________________________________________\n",
            "conv2d_1002 (Conv2D)            (None, 10, 10, 192)  258048      activation_1001[0][0]            \n",
            "__________________________________________________________________________________________________\n",
            "conv2d_1007 (Conv2D)            (None, 10, 10, 192)  258048      activation_1006[0][0]            \n",
            "__________________________________________________________________________________________________\n",
            "batch_normalization_1002 (Batch (None, 10, 10, 192)  576         conv2d_1002[0][0]                \n",
            "__________________________________________________________________________________________________\n",
            "batch_normalization_1007 (Batch (None, 10, 10, 192)  576         conv2d_1007[0][0]                \n",
            "__________________________________________________________________________________________________\n",
            "activation_1002 (Activation)    (None, 10, 10, 192)  0           batch_normalization_1002[0][0]   \n",
            "__________________________________________________________________________________________________\n",
            "activation_1007 (Activation)    (None, 10, 10, 192)  0           batch_normalization_1007[0][0]   \n",
            "__________________________________________________________________________________________________\n",
            "average_pooling2d_96 (AveragePo (None, 10, 10, 768)  0           mixed6[0][0]                     \n",
            "__________________________________________________________________________________________________\n",
            "conv2d_1000 (Conv2D)            (None, 10, 10, 192)  147456      mixed6[0][0]                     \n",
            "__________________________________________________________________________________________________\n",
            "conv2d_1003 (Conv2D)            (None, 10, 10, 192)  258048      activation_1002[0][0]            \n",
            "__________________________________________________________________________________________________\n",
            "conv2d_1008 (Conv2D)            (None, 10, 10, 192)  258048      activation_1007[0][0]            \n",
            "__________________________________________________________________________________________________\n",
            "conv2d_1009 (Conv2D)            (None, 10, 10, 192)  147456      average_pooling2d_96[0][0]       \n",
            "__________________________________________________________________________________________________\n",
            "batch_normalization_1000 (Batch (None, 10, 10, 192)  576         conv2d_1000[0][0]                \n",
            "__________________________________________________________________________________________________\n",
            "batch_normalization_1003 (Batch (None, 10, 10, 192)  576         conv2d_1003[0][0]                \n",
            "__________________________________________________________________________________________________\n",
            "batch_normalization_1008 (Batch (None, 10, 10, 192)  576         conv2d_1008[0][0]                \n",
            "__________________________________________________________________________________________________\n",
            "batch_normalization_1009 (Batch (None, 10, 10, 192)  576         conv2d_1009[0][0]                \n",
            "__________________________________________________________________________________________________\n",
            "activation_1000 (Activation)    (None, 10, 10, 192)  0           batch_normalization_1000[0][0]   \n",
            "__________________________________________________________________________________________________\n",
            "activation_1003 (Activation)    (None, 10, 10, 192)  0           batch_normalization_1003[0][0]   \n",
            "__________________________________________________________________________________________________\n",
            "activation_1008 (Activation)    (None, 10, 10, 192)  0           batch_normalization_1008[0][0]   \n",
            "__________________________________________________________________________________________________\n",
            "activation_1009 (Activation)    (None, 10, 10, 192)  0           batch_normalization_1009[0][0]   \n",
            "__________________________________________________________________________________________________\n",
            "mixed7 (Concatenate)            (None, 10, 10, 768)  0           activation_1000[0][0]            \n",
            "                                                                 activation_1003[0][0]            \n",
            "                                                                 activation_1008[0][0]            \n",
            "                                                                 activation_1009[0][0]            \n",
            "__________________________________________________________________________________________________\n",
            "conv2d_1012 (Conv2D)            (None, 10, 10, 192)  147456      mixed7[0][0]                     \n",
            "__________________________________________________________________________________________________\n",
            "batch_normalization_1012 (Batch (None, 10, 10, 192)  576         conv2d_1012[0][0]                \n",
            "__________________________________________________________________________________________________\n",
            "activation_1012 (Activation)    (None, 10, 10, 192)  0           batch_normalization_1012[0][0]   \n",
            "__________________________________________________________________________________________________\n",
            "conv2d_1013 (Conv2D)            (None, 10, 10, 192)  258048      activation_1012[0][0]            \n",
            "__________________________________________________________________________________________________\n",
            "batch_normalization_1013 (Batch (None, 10, 10, 192)  576         conv2d_1013[0][0]                \n",
            "__________________________________________________________________________________________________\n",
            "activation_1013 (Activation)    (None, 10, 10, 192)  0           batch_normalization_1013[0][0]   \n",
            "__________________________________________________________________________________________________\n",
            "conv2d_1010 (Conv2D)            (None, 10, 10, 192)  147456      mixed7[0][0]                     \n",
            "__________________________________________________________________________________________________\n",
            "conv2d_1014 (Conv2D)            (None, 10, 10, 192)  258048      activation_1013[0][0]            \n",
            "__________________________________________________________________________________________________\n",
            "batch_normalization_1010 (Batch (None, 10, 10, 192)  576         conv2d_1010[0][0]                \n",
            "__________________________________________________________________________________________________\n",
            "batch_normalization_1014 (Batch (None, 10, 10, 192)  576         conv2d_1014[0][0]                \n",
            "__________________________________________________________________________________________________\n",
            "activation_1010 (Activation)    (None, 10, 10, 192)  0           batch_normalization_1010[0][0]   \n",
            "__________________________________________________________________________________________________\n",
            "activation_1014 (Activation)    (None, 10, 10, 192)  0           batch_normalization_1014[0][0]   \n",
            "__________________________________________________________________________________________________\n",
            "conv2d_1011 (Conv2D)            (None, 4, 4, 320)    552960      activation_1010[0][0]            \n",
            "__________________________________________________________________________________________________\n",
            "conv2d_1015 (Conv2D)            (None, 4, 4, 192)    331776      activation_1014[0][0]            \n",
            "__________________________________________________________________________________________________\n",
            "batch_normalization_1011 (Batch (None, 4, 4, 320)    960         conv2d_1011[0][0]                \n",
            "__________________________________________________________________________________________________\n",
            "batch_normalization_1015 (Batch (None, 4, 4, 192)    576         conv2d_1015[0][0]                \n",
            "__________________________________________________________________________________________________\n",
            "activation_1011 (Activation)    (None, 4, 4, 320)    0           batch_normalization_1011[0][0]   \n",
            "__________________________________________________________________________________________________\n",
            "activation_1015 (Activation)    (None, 4, 4, 192)    0           batch_normalization_1015[0][0]   \n",
            "__________________________________________________________________________________________________\n",
            "max_pooling2d_43 (MaxPooling2D) (None, 4, 4, 768)    0           mixed7[0][0]                     \n",
            "__________________________________________________________________________________________________\n",
            "mixed8 (Concatenate)            (None, 4, 4, 1280)   0           activation_1011[0][0]            \n",
            "                                                                 activation_1015[0][0]            \n",
            "                                                                 max_pooling2d_43[0][0]           \n",
            "__________________________________________________________________________________________________\n",
            "conv2d_1020 (Conv2D)            (None, 4, 4, 448)    573440      mixed8[0][0]                     \n",
            "__________________________________________________________________________________________________\n",
            "batch_normalization_1020 (Batch (None, 4, 4, 448)    1344        conv2d_1020[0][0]                \n",
            "__________________________________________________________________________________________________\n",
            "activation_1020 (Activation)    (None, 4, 4, 448)    0           batch_normalization_1020[0][0]   \n",
            "__________________________________________________________________________________________________\n",
            "conv2d_1017 (Conv2D)            (None, 4, 4, 384)    491520      mixed8[0][0]                     \n",
            "__________________________________________________________________________________________________\n",
            "conv2d_1021 (Conv2D)            (None, 4, 4, 384)    1548288     activation_1020[0][0]            \n",
            "__________________________________________________________________________________________________\n",
            "batch_normalization_1017 (Batch (None, 4, 4, 384)    1152        conv2d_1017[0][0]                \n",
            "__________________________________________________________________________________________________\n",
            "batch_normalization_1021 (Batch (None, 4, 4, 384)    1152        conv2d_1021[0][0]                \n",
            "__________________________________________________________________________________________________\n",
            "activation_1017 (Activation)    (None, 4, 4, 384)    0           batch_normalization_1017[0][0]   \n",
            "__________________________________________________________________________________________________\n",
            "activation_1021 (Activation)    (None, 4, 4, 384)    0           batch_normalization_1021[0][0]   \n",
            "__________________________________________________________________________________________________\n",
            "conv2d_1018 (Conv2D)            (None, 4, 4, 384)    442368      activation_1017[0][0]            \n",
            "__________________________________________________________________________________________________\n",
            "conv2d_1019 (Conv2D)            (None, 4, 4, 384)    442368      activation_1017[0][0]            \n",
            "__________________________________________________________________________________________________\n",
            "conv2d_1022 (Conv2D)            (None, 4, 4, 384)    442368      activation_1021[0][0]            \n",
            "__________________________________________________________________________________________________\n",
            "conv2d_1023 (Conv2D)            (None, 4, 4, 384)    442368      activation_1021[0][0]            \n",
            "__________________________________________________________________________________________________\n",
            "average_pooling2d_97 (AveragePo (None, 4, 4, 1280)   0           mixed8[0][0]                     \n",
            "__________________________________________________________________________________________________\n",
            "conv2d_1016 (Conv2D)            (None, 4, 4, 320)    409600      mixed8[0][0]                     \n",
            "__________________________________________________________________________________________________\n",
            "batch_normalization_1018 (Batch (None, 4, 4, 384)    1152        conv2d_1018[0][0]                \n",
            "__________________________________________________________________________________________________\n",
            "batch_normalization_1019 (Batch (None, 4, 4, 384)    1152        conv2d_1019[0][0]                \n",
            "__________________________________________________________________________________________________\n",
            "batch_normalization_1022 (Batch (None, 4, 4, 384)    1152        conv2d_1022[0][0]                \n",
            "__________________________________________________________________________________________________\n",
            "batch_normalization_1023 (Batch (None, 4, 4, 384)    1152        conv2d_1023[0][0]                \n",
            "__________________________________________________________________________________________________\n",
            "conv2d_1024 (Conv2D)            (None, 4, 4, 192)    245760      average_pooling2d_97[0][0]       \n",
            "__________________________________________________________________________________________________\n",
            "batch_normalization_1016 (Batch (None, 4, 4, 320)    960         conv2d_1016[0][0]                \n",
            "__________________________________________________________________________________________________\n",
            "activation_1018 (Activation)    (None, 4, 4, 384)    0           batch_normalization_1018[0][0]   \n",
            "__________________________________________________________________________________________________\n",
            "activation_1019 (Activation)    (None, 4, 4, 384)    0           batch_normalization_1019[0][0]   \n",
            "__________________________________________________________________________________________________\n",
            "activation_1022 (Activation)    (None, 4, 4, 384)    0           batch_normalization_1022[0][0]   \n",
            "__________________________________________________________________________________________________\n",
            "activation_1023 (Activation)    (None, 4, 4, 384)    0           batch_normalization_1023[0][0]   \n",
            "__________________________________________________________________________________________________\n",
            "batch_normalization_1024 (Batch (None, 4, 4, 192)    576         conv2d_1024[0][0]                \n",
            "__________________________________________________________________________________________________\n",
            "activation_1016 (Activation)    (None, 4, 4, 320)    0           batch_normalization_1016[0][0]   \n",
            "__________________________________________________________________________________________________\n",
            "mixed9_0 (Concatenate)          (None, 4, 4, 768)    0           activation_1018[0][0]            \n",
            "                                                                 activation_1019[0][0]            \n",
            "__________________________________________________________________________________________________\n",
            "concatenate_20 (Concatenate)    (None, 4, 4, 768)    0           activation_1022[0][0]            \n",
            "                                                                 activation_1023[0][0]            \n",
            "__________________________________________________________________________________________________\n",
            "activation_1024 (Activation)    (None, 4, 4, 192)    0           batch_normalization_1024[0][0]   \n",
            "__________________________________________________________________________________________________\n",
            "mixed9 (Concatenate)            (None, 4, 4, 2048)   0           activation_1016[0][0]            \n",
            "                                                                 mixed9_0[0][0]                   \n",
            "                                                                 concatenate_20[0][0]             \n",
            "                                                                 activation_1024[0][0]            \n",
            "__________________________________________________________________________________________________\n",
            "conv2d_1029 (Conv2D)            (None, 4, 4, 448)    917504      mixed9[0][0]                     \n",
            "__________________________________________________________________________________________________\n",
            "batch_normalization_1029 (Batch (None, 4, 4, 448)    1344        conv2d_1029[0][0]                \n",
            "__________________________________________________________________________________________________\n",
            "activation_1029 (Activation)    (None, 4, 4, 448)    0           batch_normalization_1029[0][0]   \n",
            "__________________________________________________________________________________________________\n",
            "conv2d_1026 (Conv2D)            (None, 4, 4, 384)    786432      mixed9[0][0]                     \n",
            "__________________________________________________________________________________________________\n",
            "conv2d_1030 (Conv2D)            (None, 4, 4, 384)    1548288     activation_1029[0][0]            \n",
            "__________________________________________________________________________________________________\n",
            "batch_normalization_1026 (Batch (None, 4, 4, 384)    1152        conv2d_1026[0][0]                \n",
            "__________________________________________________________________________________________________\n",
            "batch_normalization_1030 (Batch (None, 4, 4, 384)    1152        conv2d_1030[0][0]                \n",
            "__________________________________________________________________________________________________\n",
            "activation_1026 (Activation)    (None, 4, 4, 384)    0           batch_normalization_1026[0][0]   \n",
            "__________________________________________________________________________________________________\n",
            "activation_1030 (Activation)    (None, 4, 4, 384)    0           batch_normalization_1030[0][0]   \n",
            "__________________________________________________________________________________________________\n",
            "conv2d_1027 (Conv2D)            (None, 4, 4, 384)    442368      activation_1026[0][0]            \n",
            "__________________________________________________________________________________________________\n",
            "conv2d_1028 (Conv2D)            (None, 4, 4, 384)    442368      activation_1026[0][0]            \n",
            "__________________________________________________________________________________________________\n",
            "conv2d_1031 (Conv2D)            (None, 4, 4, 384)    442368      activation_1030[0][0]            \n",
            "__________________________________________________________________________________________________\n",
            "conv2d_1032 (Conv2D)            (None, 4, 4, 384)    442368      activation_1030[0][0]            \n",
            "__________________________________________________________________________________________________\n",
            "average_pooling2d_98 (AveragePo (None, 4, 4, 2048)   0           mixed9[0][0]                     \n",
            "__________________________________________________________________________________________________\n",
            "conv2d_1025 (Conv2D)            (None, 4, 4, 320)    655360      mixed9[0][0]                     \n",
            "__________________________________________________________________________________________________\n",
            "batch_normalization_1027 (Batch (None, 4, 4, 384)    1152        conv2d_1027[0][0]                \n",
            "__________________________________________________________________________________________________\n",
            "batch_normalization_1028 (Batch (None, 4, 4, 384)    1152        conv2d_1028[0][0]                \n",
            "__________________________________________________________________________________________________\n",
            "batch_normalization_1031 (Batch (None, 4, 4, 384)    1152        conv2d_1031[0][0]                \n",
            "__________________________________________________________________________________________________\n",
            "batch_normalization_1032 (Batch (None, 4, 4, 384)    1152        conv2d_1032[0][0]                \n",
            "__________________________________________________________________________________________________\n",
            "conv2d_1033 (Conv2D)            (None, 4, 4, 192)    393216      average_pooling2d_98[0][0]       \n",
            "__________________________________________________________________________________________________\n",
            "batch_normalization_1025 (Batch (None, 4, 4, 320)    960         conv2d_1025[0][0]                \n",
            "__________________________________________________________________________________________________\n",
            "activation_1027 (Activation)    (None, 4, 4, 384)    0           batch_normalization_1027[0][0]   \n",
            "__________________________________________________________________________________________________\n",
            "activation_1028 (Activation)    (None, 4, 4, 384)    0           batch_normalization_1028[0][0]   \n",
            "__________________________________________________________________________________________________\n",
            "activation_1031 (Activation)    (None, 4, 4, 384)    0           batch_normalization_1031[0][0]   \n",
            "__________________________________________________________________________________________________\n",
            "activation_1032 (Activation)    (None, 4, 4, 384)    0           batch_normalization_1032[0][0]   \n",
            "__________________________________________________________________________________________________\n",
            "batch_normalization_1033 (Batch (None, 4, 4, 192)    576         conv2d_1033[0][0]                \n",
            "__________________________________________________________________________________________________\n",
            "activation_1025 (Activation)    (None, 4, 4, 320)    0           batch_normalization_1025[0][0]   \n",
            "__________________________________________________________________________________________________\n",
            "mixed9_1 (Concatenate)          (None, 4, 4, 768)    0           activation_1027[0][0]            \n",
            "                                                                 activation_1028[0][0]            \n",
            "__________________________________________________________________________________________________\n",
            "concatenate_21 (Concatenate)    (None, 4, 4, 768)    0           activation_1031[0][0]            \n",
            "                                                                 activation_1032[0][0]            \n",
            "__________________________________________________________________________________________________\n",
            "activation_1033 (Activation)    (None, 4, 4, 192)    0           batch_normalization_1033[0][0]   \n",
            "__________________________________________________________________________________________________\n",
            "mixed10 (Concatenate)           (None, 4, 4, 2048)   0           activation_1025[0][0]            \n",
            "                                                                 mixed9_1[0][0]                   \n",
            "                                                                 concatenate_21[0][0]             \n",
            "                                                                 activation_1033[0][0]            \n",
            "__________________________________________________________________________________________________\n",
            "flatten_15 (Flatten)            (None, 32768)        0           mixed10[0][0]                    \n",
            "__________________________________________________________________________________________________\n",
            "dense_28 (Dense)                (None, 1024)         33555456    flatten_15[0][0]                 \n",
            "__________________________________________________________________________________________________\n",
            "dropout_13 (Dropout)            (None, 1024)         0           dense_28[0][0]                   \n",
            "__________________________________________________________________________________________________\n",
            "dense_29 (Dense)                (None, 1)            1025        dropout_13[0][0]                 \n",
            "==================================================================================================\n",
            "Total params: 55,359,265\n",
            "Trainable params: 33,556,481\n",
            "Non-trainable params: 21,802,784\n",
            "__________________________________________________________________________________________________\n"
…
